Qlocal.pth (torch, 100649 bytes, 57 tensors)

Aslayer1.0.weight f4 [16, 140]
00000000: 9f05 b23d d157 32bc eff3 3cbf e2c8 823d
00000010: 4e98 8bbd 0098 8f40 f2ea a43c a52d 903d
00000020: 7585 c73c 3c6c 93bd 2ff6 6a3c 7db7 233b
00000030: fa9c 0d3d bbe5 5e3d 64b7 75bc 4926 b6bb
00000040: d0d2 69bc d2c8 563b c4e1 3abc 02a4 97bc
00000050: 7671 41bd 6c47 f53b 3813 bd3c 43e0 45bc
00000060: 31da d93a 2ceb 65bd 49fe e4bc c8b5 fe3d
00000070: 08a6 6d3c 9e13 5cbe ce5d dd3d 0d56 4c3e
00000080: 3519 c4bd 1c43 d03d 6631 123e bc91 3cbd
00000090: 1ac1 7f3c 4b16 733d 4a01 b83d b8d7 8e3e
000000a0: 1f02 d33c a68d d23c 6a1b 82bd 51f9 aebd
000000b0: 6a14 f6bd 6b8b 6b3c 7657 1e3d f6b4 c6bd
000000c0: eaee 9bbe 40f7 003e 5fe6 2e3e b110 203e
000000d0: e553 99bd 6cb9 af3d d5e8 5d3c fbbb 633b
000000e0: 356c 273d 43d6 80bd 1c4e 913c e41c 6e3d
000000f0: 634e 003e ea5d a03d 7290 ab3c 576b 6b3b
00000100: e7cf 60bd 23a2 7abd 3500 b8bd 1ea6 8b3c
00000110: ee5d 383d 4221 a43d 1a6b 8b3d 6335 91ba
00000120: dbdd ee3a 7b6f ec3b 0021 923d 6d00 cdbc
00000130: f679 49bd 1100 1ebd d273 073d c7a0 0b3e
00000140: 20df 553d 1dfd 3dbe 7d87 f4bc 7e34 123d
00000150: bdb6 08be 883e 873a d7c9 3dbc 9b1b 60bd
00000160: 3405 48bb a907 6bbd 7b8e 28bd 7602 2abd
00000170: ee86 b43d b290 65bc 99c8 0ebd ccc5 bfbc
00000180: 23c9 a2bd deae 013e 9740 2f3d b15e 7d3d
00000190: b245 163c 5885 93bc b100 b03c 8fdb 0d3d
000001a0: e93a 683c cd71 ed3c 6ea6 15bc db47 883d
000001b0: d165 253d e676 79bd 8afa c23c 6647 1d3d
000001c0: db21 afbb a9e6 363d 356e e03c c6dd 95bc
000001d0: d5f3 233c cf82 9abd 3efe 06bd 5f97 90bd
000001e0: bfe6 503d 2cba 333d 5bba 16bd 5a3c 083c
000001f0: c310 0e3f 319e fbbd 36f6 94bd 0fc7 a03c
00000200: f213 933c 9f72 72bc 7006 803d 579e 283d
00000210: 21a2 a0bc 00a7 b83d 3af7 8ebd 75ed 263d
00000220: a6fb 00bd 91d7 df3d 212f 4dba 7acb 0cbf
00000230: ec90 b43d acab cdbd 4a77 f7be 06f0 f03c
00000240: 65c6 783f a942 383f b478 953d 4166 85bd
00000250: fd7d 003e 7a3d aabd 9b8c cc3d a910 003e
00000260: 4efa bc3c 6043 05be 56a2 5c3d d4dd 2d3d
00000270: 7069 223c d5e6 cd3d f422 093e 8c5c c83b
00000280: e419 29bd e1a5 163e e330 4fbf 8276 9b3d
00000290: 0928 d7bd fb03 bebd 9d71 013e aaa9 713e
000002a0: 837a f53e 5b9b d73d d9b2 36be ebf6 b23d
000002b0: 782e 613c 73eb f3bd 35ce 483e b4b2 f0bd
000002c0: a8b7 91bd ce8a a63d 19ec 0c3e 1614 143f
000002d0: cde7 d93e 24cf 24be 7d18 9bbe b2ba 7bbd
000002e0: 078c bbbe 88e6 93bd 91b5 3d3d 3f01 3a3d
000002f0: e26d 823e 4a9c 0dbe 0f8b 863e a331 3cbe
00000300: 5afe 02bf 8318 1ebd 8be6 9fbc dbc2 c83d
00000310: 2101 1e3e b7c1 43bd d49e 2c3d c4f2 333c
00000320: 13e4 d8bb 5ba7 35be 9590 613d 85cf 42bc
00000330: e1ca 01be d05f b7bd 3cde f13d 90ea 093e
00000340: cce3 843c cf5c 0bbe ccbf 863d 9d02 ec3d
00000350: 8ec4 543d 0240 553c dc38 4ebd 85af 17be
00000360: 3b5c 97bd 8762 dfbd f013 ba3d 34e8 fcbd
00000370: cf5b 8c3d 5f4c c3bd cbbd abbe ac36 063d
00000380: ae64 693d b1b1 993c e949 1abc 2168 eebc
00000390: 08e5 3a3e c4d2 cf3d 4dde 0d3e 2f49 a13d
000003a0: 6b1a eb3d ecce 54bd a1fd 703c cf31 67bd
000003b0: ac97 333a 42c4 19bd 1ccd a33c 55fd 33bd
000003c0: 926a 7abd 4cf5 903d 07f5 d33d 3dc6 2cbd
000003d0: a5f3 9bbd 8b28 13be 9485 2ebe 88d3 fe3c
000003e0: a57c b0bc 2934 73ba c92d de3d 3a57 cf3d
000003f0: 261c 213d f50a 363d 6307 86bc 04a0 e0bc
0.086924784 -0.010885195 -0.73809713 0.063859716 -0.06816159 4.4873047 0.020131562 0.07039956
0.02435563 -0.071983784 0.014340921 0.0024981194 0.034573533 0.054418307 -0.014997337 -0.005558763
-0.014271453 0.0032773507 -0.011406366 -0.018510822 -0.047227345 0.007485321 0.023080453 -0.012077394
0.0016620812 -0.05613248 -0.027953284 0.12437016 0.014504917 -0.21491858 0.108089074 0.19954701
-0.0957512 0.1016905 0.14276657 -0.04603742 0.015610004 0.059347432 0.08984621 0.27898955
0.025757847 0.025702309 -0.06352885 -0.08543647 -0.120156124 0.014376502 0.038657628 -0.09702484
-0.30455714 0.12594318 0.17080067 0.15631367 -0.07486705 0.08580288 0.013544281 0.0034749496
0.04087468 -0.06290867 0.01773744 0.05813302 0.12529902 0.07830413 0.0209429 0.0035922134
-0.05488577 -0.061189782 -0.089844145 0.017046984 0.045011453 0.08014156 0.068075374 -0.0011078533
0.0018224077 0.007215438 0.071352005 -0.025024617 -0.049188577 -0.038574282 0.03306944 0.1363555
0.05221474 -0.18553586 -0.029849762 0.03569459 -0.13350959 0.0010318318 -0.011583767 -0.054713827
-0.003052068 -0.057380352 -0.041151505 -0.041506253 0.08814798 -0.014011549 -0.034859274 -0.023409747
-0.0794852 0.12664363 0.042786207 0.061857883 0.00917189 -0.01800792 0.021484705 0.034633216
0.0141742015 0.028984929 -0.009133918 0.0665433 0.040380303 -0.060904406 0.023801107 0.03839817
-0.005344612 0.04465357 0.0273963 -0.018294226 0.010006865 -0.07544481 -0.032957308 -0.07060122
0.051001307 0.04387872 -0.036798816 0.00831517 0.55494326 -0.12286032 -0.072735235 0.019626169
0.017953847 -0.014797836 0.06251228 0.04116663 -0.01960856 0.09016228 -0.069807485 0.0407538
-0.03148999 0.10929788 -0.0007827152 -0.5499798 0.08816704 -0.100425094 -0.48333198 0.029411327
0.97177726 0.71976715 0.07298413 -0.06513644 0.1254806 -0.08312507 0.09987756 0.12506355
0.023068573 -0.13013983 0.053865753 0.04244788 0.009912834 0.10053793 0.1339224 0.006114548
-0.041284457 0.14711715 -0.8093397 0.07590963 -0.10505683 -0.09278103 0.12640996 0.23599878
0.47945032 0.105276786 -0.17841662 0.08738502 0.013743989 -0.11910143 0.19609912 -0.11752835
-0.07115108 0.08131944 0.13761939 0.5784315 0.42559662 -0.16094643 -0.3029212 -0.061457343
-0.3663027 -0.07221705 0.046315733 0.045411345 0.2547446 -0.13829151 0.26277968 -0.1837831
-0.5116936 -0.038597595 -0.019519111 0.09802791 0.15430118 -0.047792163 0.042143658 0.010983173
-0.0066189854 -0.17739622 0.055069525 -0.011890297 -0.12675048 -0.08953822 0.11809966 0.13468385
0.016221903 -0.13609622 0.06579551 0.11523936 0.05194526 0.013015749 -0.050347194 -0.14813049
-0.073906384 -0.109074645 0.09085834 -0.12348977 0.068534486 -0.09536051 -0.33543238 0.032766983
0.05698078 0.018761488 -0.009417036 -0.029102387 0.18251431 0.10147622 0.13854332 0.07875287
0.11479648 -0.05195515 0.014708907 -0.056443986 0.0006850909 -0.03754068 0.019995265 -0.043942768
-0.06113679 0.07078037 0.1034947 -0.042181242 -0.07614831 -0.14370935 -0.17043144 0.031106725
-0.02154381 -0.0009277487 0.108485766 0.10124059 0.039333485 0.044444043 -0.016360944 -0.027420051

Aslayer1.0.bias f4 [16]
00000000: 2795 bb3d f8b2 a93d 18d7 e93d bb58 54bb
00000010: 4976 93bd b4c8 0c3d 974f 7a3d f7dd e4bc
00000020: 1b86 5bbd 8b1d 06bc 1eea cc3d cca6 21be
00000030: 4367 013d a333 c4bd 66c0 013d 6f82 b83c
0.09159308 0.08286089 0.11417979 -0.003240152 -0.072002955 0.034371093 0.06111106 -0.027937872
-0.05359469 -0.0081857545 0.10005592 -0.15786284 0.03159262 -0.095801614 0.031677626 0.022523133

Aslayer2.0.weight f4 [16, 16]
00000000: afe5 ec3e 12cd 4f3e 8ca4 86be 3c0a e2be
00000010: da39 ef3d a2ba 033f 62f9 7ebe dad7 cd3d
00000020: 3cbe f9bd d56a cebd bb18 19be 729d 103f
00000030: a8b3 9ebe 18fa 7fbe 4dd4 933e a7a1 e03e
00000040: 20a3 e63e f7c2 8b3e 7289 563e 7931 c53d
00000050: c9cb 173e 89c3 443e f682 d63a 75e0 07bd
00000060: 6618 933e 1304 88bd 6251 2e3e 5fcd aebe
00000070: 8f45 1a3e 0b53 17be 94d7 ef3d 0c69 6b3e
00000080: f38b 0d3f 8d4f 98be 2370 28be ce3d 853e
00000090: ec38 a43e f38d 67bd 855a 83be 641e 3cbe
000000a0: fa4b ae3e d536 f93d 3c88 253e 8b47 36bc
000000b0: 9776 2abe b882 243d 93e7 aebe 1fd7 8dbd
000000c0: 5b57 ccbe ee7a 433e 1b9a f73d f099 3f3e
000000d0: 1560 00bf bf81 783d 1b6c 443e d72e 283e
000000e0: 43ae ed3d c9c6 82be c2ed 7fbc 68af ae3d
000000f0: e1ab 89be e512 6c3e 0d18 283e 595e 0c3e
00000100: 0555 83be d3da b73e a91a c73d 9771 d8bd
00000110: b99e 83be 0d5c e5be 4eb9 333d 1304 9fbe
00000120: db3b bcbd b3b2 08be 6eef 0abd 7cec 66be
00000130: 1d5c a03e 030a 0b3e 7dcc b2bc 9f3c 55be
00000140: 44a0 443e 23dd 15be 4c59 343e ec69 663e
00000150: 9421 74bd a7ea 0cbf 43e4 d5bd 190d cb3d
00000160: 4055 cabe ac36 d93d a86e e4bd eb97 9a3e
00000170: b20d 42bd 76cc 3bbe 57c5 0ebc 64a5 013e
00000180: afa2 bc3e a49f ee3d a03a fbbd 2c72 cb3e
00000190: a1a9 3c3e ea49 ca3e 0bf3 acbe 06ab 973e
000001a0: e360 90be be99 e33d 75bd 35be f7e4 4dbe
000001b0: 7921 1abd c65b acbe 4155 5cbc 95cd 86bd
000001c0: 5ea4 f13d dd56 bbbd 8d3a 233e ffe6 073e
000001d0: 2209 98bd 9d2b acbc 49e5 ed3d 125e 153d
000001e0: e885 81be 4061 50be ac6a 17be 7153 93be
000001f0: d898 6fbe b7ce 2ebf c9d0 21bd 970b 9fbe
00000200: 12cb 92bd 9067 323e 0d85 4abe c93f 8b3d
00000210: c965 eb3b 1a71 94be 13c4 663c 36ad 01bf
00000220: 66ee dbbe 9771 743d 4fdc 4f3e 4883 1d3b
00000230: 7e40 b53e 4fc2 c73d 8e2f d4bd 29e2 a2be
00000240: f5b9 e03e 50b5 d73d ba86 6c3e 372b 92bd
00000250: 4ca6 00bf 33bb 77bc 802b f6bd a543 d2be
00000260: 3ff9 debe 6125 42bd aebb 79be 281d e53d
00000270: 17c1 c63d d5db 973c 83a7 cc3c e506 a53d
00000280: 062a 68be 248c d0bd d1e5 903c 0c5f 8bbd
00000290: fef5 243f d491 a53e f1f8 e13d 4bf6 11be
000002a0: e486 3c3e 8e6a c7be 9344 1fbd 269c 2e3e
000002b0: f7b9 293e 743e 0bbf 776b 8bbe 0154 e3be
000002c0: 9434 f33e 7839 f5bd 7fbd 163e 704d d33d
000002d0: fbb0 b43e 3e71 6e3e bc2c 783e a9ad 52be
000002e0: 188e 2f3e 0d6c d5bd 638d 493d 367c 773e
000002f0: 983b 02be fb99 573c f8f8 2abf 552c b2bd
00000300: 2530 033f fda2 6fbd 34c1 713d 3e3a 2c3d
00000310: 65d4 9e3d 3274 52be 2c5e 123e 1298 e6bd
00000320: 0629 8fbe 7f06 49be b77a fd3d c295 753e
00000330: 1ecb 063d dab3 e13d 6c61 723e 67b2 9dbe
00000340: f315 1abf a513 103d d48d c63d c85c 3bbe
00000350: 3074 033e cbad 71be 339e debd a265 42bf
00000360: 9b8d 98be 6902 3abd 27dd fd3d 4d04 87be
00000370: 88b7 44bd abe3 1d3e b838 3c3d 8381 cbbd
00000380: d3d2 e53e e73b 1c3f c709 89bd 1a29 91be
00000390: 62e0 1dbe bc99 28be fda4 c9be 78dc 1bbf
000003a0: f365 b83d 0dea 833e 89a5 213e 7091 33be
000003b0: 76da 593c 4ae7 8ebe 225a 9ebc f9f6 55be
000003c0: b280 563e f7a6 aa3e 37bf 7f3e ebf2 ff3b
000003d0: 8761 36be d778 4a3e 6734 1cbf 55c0 f23e
000003e0: 6293 933d 0f0c df3d ca3b 9fbe ce63 e03e
000003f0: a4f5 983d 3de4 cfbd 1fde 3ebe 6a11 c43e
0.46268985 0.20293072 -0.26297414 -0.44148433 0.11680956 0.51456654 -0.2489982 0.10050936
-0.121944875 -0.1007897 -0.1495084 0.5649024 -0.30996442 -0.24997747 0.2887291 0.4387333
0.4504633 0.27297184 0.20950869 0.09628577 0.14823832 0.19215216 0.0016365934 -0.033173043
0.28729552 -0.06641402 0.17023233 -0.3414106 0.15065597 -0.14777772 0.1171104 0.22989291
0.5529167 -0.29748192 -0.16449027 0.26023716 0.32074678 -0.056531858 -0.25654998 -0.18370968
0.3404234 0.121686615 0.1616525 -0.011125456 -0.16646801 0.040163726 -0.34161052 -0.06925797
-0.39910397 0.19089863 0.1208994 0.18711066 -0.5014661 0.06067061 0.19181864 0.16424118
0.116055034 -0.25542286 -0.015620651 0.0852955 -0.26888946 0.23054083 0.16415425 0.13707866
-0.25650802 0.35909137 0.09721882 -0.105685405 -0.25707033 -0.44796792 0.043877892 -0.31057796
-0.09191104 -0.13349418 -0.033919744 -0.22551149 0.31320277 0.13578038 -0.021826023 -0.20823906
0.19201761 -0.14635138 0.17612189 0.22501343 -0.059602335 -0.5504555 -0.10443928 0.099146076
-0.39518166 0.10606131 -0.111539185 0.3019403 -0.047376342 -0.18339714 -0.008714042 0.12660748
0.36842868 0.11651543 -0.12267041 0.39735544 0.18424083 0.39509517 -0.33779177 0.29622668
-0.2819892 0.11113308 -0.17748053 -0.20106874 -0.03762958 -0.33663768 -0.0134480605 -0.065821804
0.11798929 -0.09147427 0.15940304 0.13271712 -0.07423617 -0.02101689 0.11615998 0.036466666
-0.25297475 -0.20349598 -0.14786786 -0.28774598 -0.23398149 -0.6828417 -0.039505754 -0.3106353
-0.07167639 0.17422318 -0.19777317 0.067992754 0.0071837646 -0.2899254 0.014084834 -0.50654924
-0.4295532 0.05967864 0.20298885 0.0024034549 0.35400766 0.09753858 -0.10360633 -0.31813172
0.43891874 0.105326295 0.23098269 -0.07137149 -0.5025375 -0.015120315 -0.12020016 -0.41067234
-0.43549535 -0.04739893 -0.24388 0.11187202 0.09704798 0.018537441 0.02498222 0.08057956
-0.2267228 -0.1018298 0.01768771 -0.06805238 0.64437854 0.3233782 0.1103381 -0.1425411
0.18410832 -0.38948482 -0.038883757 0.17051753 0.16574846 -0.5439217 -0.27230427 -0.44400027
0.4750105 -0.11973852 0.14720725 0.103175044 0.35291275 0.23285386 0.24235815 -0.20574059
0.17144048 -0.10421 0.049207103 0.24168476 -0.12718046 0.01315927 -0.66786146 -0.08699862
0.5124534 -0.058505047 0.059022143 0.04204773 0.07755355 -0.20552137 0.14293736 -0.11259474
-0.27960986 -0.19631384 0.123769216 0.2398291 0.03290855 0.11020632 0.23669976 -0.30800173
-0.6018974 0.035174984 0.0969502 -0.18297112 0.12837291 -0.23601453 -0.10870018 -0.7593633
-0.29795536 -0.045412455 0.12395697 -0.2637047 -0.04802659 0.1541888 0.04595253 -0.09936812
0.4488741 0.61028904 -0.06691318 -0.2835167 -0.15417627 -0.16464895 -0.3938369 -0.60883284
0.0900382 0.25764504 0.15785803 -0.17535949 0.013296714 -0.27910835 -0.019330088 -0.20894994
0.20947531 0.3333051 0.24975286 0.0078109405 -0.17810641 0.19772659 -0.6101746 0.47412363
0.072058454 0.10890972 -0.31100303 0.43826145 0.07468727 -0.10150955 -0.1863942 0.38294536

Aslayer2.0.bias f4 [16]
00000000: 6be8 e0bd 1d9d 91bd dd76 f9bd 1f24 82be
00000010: b3e8 5bbd f372 27be 9fa8 12be dfac 29be
00000020: 9f5e f63b 6744 133e 1e34 29be 0b92 76be
00000030: 028c dcbd 8e3d 203d 7641 263e 3965 903e
-0.1098183 -0.07110045 -0.121808745 -0.25418183 -0.053688716 -0.16352443 -0.14322136 -0.16569851
0.007518604 0.14381562 -0.16523787 -0.24079148 -0.10768892 0.039121203 0.16235909 0.28202227

Aslayer3.0.weight f4 [16, 16]
00000000: 3c99 ab3e 2926 9a3e 5ba2 e6bd 1662 efbd
00000010: 6fc9 54be 961f 90bd 3846 9a3d 916e 473e
00000020: e68b fa3d 728e c13e ac5f 8fbe 0906 cfbe
00000030: 382d a33e f085 dc3c 5a7b 1ebe b1e6 b8be
00000040: 29f0 e73e d6d6 723d 8d3f 6b3e 383f a0bd
00000050: 9177 e0be 3942 c03e a312 1cbe 6532 efbd
00000060: 43e6 f3be ba29 eb3d 212a b9bd 3c36 d73e
00000070: 2263 493d 0ef1 07be 93f1 753d a703 4f3e
00000080: 3f0e 153f 6679 bebc ffe9 8f3b e0bb 963e
00000090: 187d 903b b977 91be 9124 a13e c880 973e
000000a0: e1a3 b3be 4051 a6be 52b9 75be faef c3be
000000b0: 3b77 a53d 8061 63bd c7ec 913d 4c26 77bd
000000c0: 32e1 133d de51 c13e 331e 523e e4d3 9b3d
000000d0: f871 31be df07 b83d 691a 453e c152 1e3e
000000e0: 2ba5 0fbf d5d1 cd3d 4368 4bbe 69dc 11be
000000f0: d951 00be 4382 e0be ee9c 483d 3143 8bbe
00000100: a7b8 f0be 07fa 823e 88bd ad3d cf95 9a3e
00000110: cdb0 8a3e 4e74 67be 3d46 833e 3380 773e
00000120: a839 a1bb 2663 543e fd4c 37be 70ce 5e3e
00000130: 9252 91be 1f3a 143e 820c d2be a44d d13d
00000140: 4dc4 03be c234 4a3e 34b2 33bd c47a 0bbe
00000150: 33af a5bd bbc2 a53e bb6b 993e 07eb 84be
00000160: a361 87bd bc16 36be 6a45 29be 84e6 3dbf
00000170: d5f7 df3d 3658 1d3e 6176 893d e672 673e
00000180: 4723 d5be dcc6 43bd 93e4 693d c758 12bd
00000190: 48c1 a9bd afe7 17be 3b91 1cbf fb28 183e
000001a0: 90b8 2a3c 085a 06be 2cae 233e 9a9f 60bf
000001b0: 6c57 b6be 1557 4c3e 7877 8abe c9dd debe
000001c0: 8502 9c3e 7c5d 0cbe 961e 79bd 32be 503e
000001d0: 3733 d0be eb96 7cbd b79e 8b3e 6513 bfbd
000001e0: aaf1 d8be 2f77 8c3d b235 3ebe ef61 683e
000001f0: 0fa6 48be 9aee 3dbe 4529 2b3e ec74 49be
00000200: 6d0f b23d 2872 5fbe fd6a 15be 420d 873e
00000210: 0855 e33d eb1e fe3d 1545 533d ee29 343c
00000220: 2159 603e d204 b23d b0d0 b5bd a89c e73c
00000230: 5cc9 1bbe f324 29bd c4f8 aebe 6275 c53e
00000240: 3e69 133f f3d8 6d3e 2eeb 4abe 62de 15be
00000250: 0860 113e ca92 84be b1cc 2c3f 8023 ce3d
00000260: a2b0 1abd 33fe 8bbe 52ad 233e 6ab5 05be
00000270: 393d 84bc 3a69 333e 0c0f f1be 2b0b 00be
00000280: c8f3 0fbe 8558 f53d 89a1 34bd fa43 16bf
00000290: cff3 af3e ad3f 193d 81f9 41be 89db cf3e
000002a0: 8818 76be afd5 9abd 587e ee3e 2e93 aebc
000002b0: e8ec 1d3e 3694 ddbe f6d2 de3e 9b7d 91be
000002c0: 748d 98bd 63ad 84bd 9e79 40be bfb8 613e
000002d0: 197d 94be a9c0 79be 8d8c 0e3d 5bf5 143f
000002e0: c261 80bd d697 12be 8a1b 933e 1449 f9bd
000002f0: 05bb 30be aba1 a3bd 037a 86be 76c1 94be
00000300: 294b bdbe 4e4d 263e 03cf c63e f816 bc3d
00000310: ae16 303e e863 7abd 6857 763e 1e80 21bd
00000320: d24b 4fbd 3c14 ecbe b3f2 853d 2c6f 303f
00000330: a7d5 39bd 6038 47be 2c63 a1be a77f 9cbe
00000340: f1b2 1e3e 6d76 7b3e af2f 8bbd 9c75 353e
00000350: 65d8 90bd 21ab c9bd 1e16 4dbe 58d5 cdbb
00000360: 5d27 c5bc bda0 ae3b b724 983e d2ae bc3e
00000370: 605f 403e a794 563d c786 cd3d d7ab 883d
00000380: 19e5 6d3e b6be 8dbe a614 f93e aeaa 6a3e
00000390: d167 013d 1705 1abe f0a6 773e bc95 6abf
000003a0: 4ac8 983e 7a32 b2bd 09d1 a2be baf3 afbe
000003b0: 27a1 33be d6bb b2bd 4e72 dbbe 2a5d 3f3f
000003c0: 2c75 c83e a16f 22b8 9792 b2be 0d35 ad3d
000003d0: b8f7 b1be cef3 35be 2037 cf3e a00f a0be
000003e0: 3ac9 053f 0b96 e6bd 5ddc 643e c9b7 cfbd
000003f0: 9309 0dbd 5f65 d8be de1d 673e fe41 533d
0.33515346 0.3010724 -0.112614356 -0.1168863 -0.20779966 -0.070372745 0.075329244 0.19475771
0.12233715 0.3780399 -0.2800268 -0.40434292 0.31870437 0.026919335 -0.15476742 -0.36113504
0.45300415 0.059286915 0.22973461 -0.07824558 -0.43841222 0.37550524 -0.15241484 -0.11679534
-0.47636613 0.11482568 -0.090412386 0.42033565 0.049166806 -0.13275549 0.060044836 0.20216237
0.5822486 -0.023251247 0.004391908 0.29440212 0.0044094436 -0.28411654 0.3147321 0.2959044
-0.35085967 -0.32483864 -0.23996475 -0.38269025 0.08079382 -0.055512905 0.0712524 -0.060339257
0.036103435 0.37757772 0.20519333 0.07608774 -0.17328632 0.08985876 0.19248356 0.15461256
-0.561114 0.10049788 -0.19863991 -0.14244236 -0.12531222 -0.43849382 0.048977785 -0.271997
-0.4701588 0.2558138 0.08483416 0.3019242 0.27088013 -0.2260296 0.25639525 0.24169998
-0.0049202032 0.20740947 -0.17900462 0.21758437 -0.2838331 0.14475296 -0.41025168 0.10219887
-0.12867852 0.19746688 -0.04387112 -0.1362105 -0.08090057 0.3237513 0.29965004 -0.25960562
-0.066104196 -0.1778211 -0.16530386 -0.74179864 0.10935942 0.15365681 0.06712032 0.22602424
-0.41628477 -0.04779707 0.05710275 -0.035729196 -0.082888186 -0.14834474 -0.61159104 0.14859383
0.01041998 -0.13120282 0.1598441 -0.8774353 -0.35613573 0.19955094 -0.27044272 -0.43528584
0.30470672 -0.13707536 -0.060820185 0.20385054 -0.40664074 -0.061667364 0.27269527 -0.09329871
-0.42371875 0.0685867 -0.1857517 0.22693609 -0.19594596 -0.1854805 0.16714962 -0.19673508
0.086943485 -0.21820891 -0.14591594 0.26377302 0.11100203 0.12408241 0.051579554 0.010996325
0.21909 0.08692326 -0.088776946 0.028272942 -0.15213531 -0.041295003 -0.34174168 0.38566118
0.5758246 0.23227291 -0.19816276 -0.14635614 0.1419679 -0.2589324 0.67499834 0.10065365
-0.037766106 -0.27342376 0.15984085 -0.13057485 -0.016142474 0.1752061 -0.47081792 -0.1250426
-0.14057839 0.119797744 -0.044099364 -0.58697474 0.343657 0.03741424 -0.18942834 0.4059718
-0.24032795 -0.07560288 0.46580768 -0.021310415 0.15422404 -0.43277138 0.43520325 -0.28416142
-0.07448855 -0.064783834 -0.18796393 0.22043131 -0.29001692 -0.243899 0.03480201 0.5818688
-0.06268646 -0.14315733 0.28731948 -0.12172142 -0.17258842 -0.0798982 -0.26264963 -0.2905385
-0.36971405 0.16240427 0.38829812 0.091840684 0.17196152 -0.061130434 0.2405678 -0.039428823
-0.050609417 -0.46109188 0.06540432 0.68919635 -0.04536977 -0.19455099 -0.31520975 -0.3056614
0.15497948 0.24556895 -0.06796204 0.17720646 -0.07072524 -0.098470934 -0.20027968 -0.006281536
-0.024066621 0.00532922 0.2971551 0.36852127 0.18786383 0.05238786 0.10035472 0.06673401
0.23231925 -0.27684563 0.48648566 0.22916672 0.031593148 -0.15041004 0.24184775 -0.91634727
0.29840308 -0.08701034 -0.31800106 -0.34365636 -0.17541943 -0.08727233 -0.42860645 0.7475153
0.39151895 -3.8727772e-05 -0.34877464 0.08457384 -0.34759307 -0.17768785 0.40471745 -0.3126192
0.5226017 -0.11259087 0.22349687 -0.10142476 -0.03443296 -0.4226484 0.22569987 0.051576607

Aslayer3.0.bias f4 [16]
00000000: 53ce 2c3e d322 97be f5a5 103e bfec c1bc
00000010: 0277 a73e 49cf 73bd bd01 89be 3043 20be
00000020: 4410 60be 7a1a 54bd 9a06 6a3e 1c28 f6be
00000030: b522 2c3d 893c b7bd 7eae a13d 2392 ecbe
0.16875581 -0.29518756 0.14125808 -0.02367246 0.32707983 -0.059523854 -0.2675914 -0.1565063
-0.21881205 -0.051783063 0.22854081 -0.48077476 0.042025287 -0.08947093 0.0789461 -0.46205243

Aslayer4.0.weight f4 [16, 16]
00000000: 4777 103e 0141 dbbe 6694 003d 52f0 403e
00000010: b7ea c83d 46c4 a43d e233 703d a8d1 173e
00000020: 17b1 c0bd d061 ac3e b57c a0be aa4a bc3c
00000030: 59a6 863e 340a e8bd 00ab f9bd c4b4 8b3d
00000040: 8b93 393d 385e 05be 4205 2abe a2c7 0bbe
00000050: 3317 c5be cbd5 1bbe c73f 633e 1256 f5bd
00000060: 7ace 9abe 3fea 983d ff75 16be 2461 ed3e
00000070: 078f 76bd da7d 653e 2254 22bf 046a 4fbf
00000080: d895 0e3e a6ab e13d c541 093e 5312 1a3e
00000090: 3f2b 473c 0583 ac3d c95d a5be bfd6 9f3e
000000a0: 451d 623e 63a3 103d 4513 7f3d d9e6 b2bd
000000b0: e495 1ebf 2f8c a7bd 9bdc 023f a126 b73e
000000c0: 3b6e 4a3d 1b9e a0bd e0ff 5ebe cabf a7bd
000000d0: 5d45 a43d 6853 8b3d 1bd1 623e a208 d33d
000000e0: 0ddc 943d b6c8 bd3d ddcd b33e f62d 973e
000000f0: c28e 5e3f cd82 f03c 4460 dd3e 5035 6bbe
00000100: f85a f93b 41ec e5be 27b9 48bc 2df7 7f3e
00000110: 7e14 433e c795 343e ca09 843c 0eb2 39bc
00000120: c34c 243e 02d6 cf3d 2cba 19bd aeaa a83d
00000130: 31c1 213f 2e19 253e d8c7 873d 37bb 29bc
00000140: 7ecf 8c3e 082f 5cbe bb1a 8f3d 482f 813d
00000150: 3b6d 0bbf aaa7 a83e 4e1f 1e3d 78a6 d1be
00000160: 400b 35be 2a39 233f 2e66 abbd ce66 12be
00000170: 0df6 fb3c 9f3c 40ba 6362 72be 9af1 d33e
00000180: c1d9 b73e 76f8 ad3e 19dc 803e 8175 e03d
00000190: 5212 6d3d 963d 533e 103a a9be f924 453d
000001a0: e2ec 1e3d 2c09 a6be c52b 19bf 508a 6bbd
000001b0: 23dd bfbe 6b9c 623e 9809 cc3d 7908 71be
000001c0: 502f c5be 00b9 813f e2db e9be 3b5e ad3e
000001d0: 3cdb 243e e17c 833e 2f67 4b3d 81f7 da3e
000001e0: a513 2d3e d258 7f3d d440 b0be 448b 93be
000001f0: f060 86be 325c 1fbe 5668 253c e7e1 3ebe
00000200: 6685 b0be f7c9 41be d264 c73d 6e05 aa3e
00000210: 007d 833e a78d e4bc 2296 af3e 42fb 843e
00000220: d761 8fbe 0214 6a3f fc6d 8ebd ceda f1bb
00000230: 0f44 e4bc 909a 913e 610d 293d 9cbe 77bd
00000240: 3dce 333e a33b aebe 2250 be3e ae8b 093e
00000250: 9bab 843e 5b1a 783d c0fc 933e 21ba b7bc
00000260: f6c3 abbc 2ead 25bc bd9f 323f e76d 13bd
00000270: f49d 4cbe f5d2 abbc 04c5 a7be 9972 fd3e
00000280: f85d c73d e1c2 083f 0f69 f0bd 7ba6 c53e
00000290: 1573 363b 8965 04bd 02c6 14be 30b1 6d3f
000002a0: 43cd 3bbd 26d3 02bf 46a0 1abf 0338 2fbe
000002b0: 6189 61be 32d1 87bd ce6e bcbe ccd0 ecbe
000002c0: de62 013e b0da b03a 0701 92be 3456 9e3e
000002d0: fa20 e13c 576a d03e 9e2d 3bbe 2fc5 e9be
000002e0: 04b2 45be c05c 313c a3e6 933e 65a6 21ba
000002f0: 316f 4b3d bf14 60bd 92d8 21bf 11bf 78be
00000300: 20f8 e6be 197a 73be 5e4b 90be 41e8 ccbe
00000310: b3c1 44be d1d8 f43d c211 7bbe c7f1 8ebe
00000320: ebc0 d43d 6f0f 01bf 185c 683e 49d8 70bd
00000330: a953 5e3e 11fd 16be 3f56 7dbe 3d15 06bf
00000340: 349f 95ba 831c 66be ddb4 97be 95aa 0dbd
00000350: d10c 8d3d 2513 ff3d e895 a63e 2d94 c8be
00000360: 4c15 113e 342b 9a3e 6bb4 5f3f 5e03 4b3d
00000370: b497 02bf 1e9c 3b3d 70fa b73e e538 a73e
00000380: 36c5 ce3e 1e90 42bc b3b1 b93e c94d fd3e
00000390: ea3e 2ebe 466b 9abe 53b1 c3bd 2c16 b13d
000003a0: cf0f 1cbf 72f5 3a3f e218 883e dc31 40bf
000003b0: 0ed8 37bf 3ba2 c3bc e2b4 95be ce67 dd3e
000003c0: c73b a5bd ccb1 fc3d a876 243e b458 dd3d
000003d0: e567 283e 2ff6 903d 80d2 0b3c fc6a 54be
000003e0: b508 a5be dd99 2d3e a983 90bd eb80 efbd
000003f0: 36ed a83d d983 13bf 8d49 d6be f05c debe
0.14108 -0.42823032 0.031391524 0.18841675 0.09810393 0.08045249 0.05864323 0.14826071
-0.09408777 0.33668375 -0.31345144 0.022984821 0.26298788 -0.11330071 -0.12190819 0.06821588
0.045306724 -0.13024223 -0.16603568 -0.13650373 -0.38494262 -0.15218274 0.22192298 -0.11979307
-0.30235654 0.07466554 -0.1469345 0.46363175 -0.060194995 0.2241129 -0.63409626 -0.8102114
0.13924348 0.110190675 0.13403995 0.15046053 0.012156307 0.084234275 -0.32298115 0.31218526
0.22081478 0.035312068 0.062274236 -0.08735437 -0.61947465 -0.08181035 0.5111787 0.3577166
0.04942153 -0.07842656 -0.21777296 -0.08190878 0.080210425 0.06803018 0.2215008 0.10304381
0.07268534 0.09266798 0.35118 0.29527253 0.8693658 0.029359246 0.43237507 -0.22969556
0.0076097213 -0.4490681 -0.012251175 0.24996634 0.19050786 0.1763526 0.016117949 -0.011333955
0.16044907 0.101482406 -0.037531063 0.082356796 0.6318541 0.16122887 0.06629914 -0.010359577
0.27502054 -0.21502316 0.0698752 0.06307846 -0.5446355 0.32940418 0.038604073 -0.40947318
-0.17680073 0.637591 -0.083690986 -0.1429703 0.030756975 -0.0007333252 -0.23670344 0.41395265
0.3590832 0.33978623 0.2516792 0.10959912 0.0578788 0.20628962 -0.3305211 0.048130963
0.038800128 -0.32428873 -0.5983241 -0.057504952 -0.374734 0.22129981 0.09962767 -0.23538388
-0.3851266 1.0134583 -0.4567557 0.33860955 0.16099256 0.25681213 0.04965895 0.42766955
0.16902025 0.062340565 -0.3442446 -0.2881719 -0.26245832 -0.15562513 0.010095676 -0.18640862
-0.34476775 -0.189247 0.09736027 0.33207268 0.25681305 -0.027899576 0.3429423 0.25972944
-0.28004333 0.9143678 -0.069545716 -0.00738082 -0.027864484 0.28438234 0.041272525 -0.060484514
0.17559142 -0.34029874 0.3717051 0.1343219 0.25912175 0.06057201 0.2890377 -0.02242762
-0.020967465 -0.01011209 0.6977499 -0.035993483 -0.1998213 -0.020974616 -0.32767498 0.49501494
0.0973472 0.5342236 -0.11738788 0.38603577 0.002783959 -0.032323394 -0.14528659 0.9284849
-0.04585005 -0.51103437 -0.6040081 -0.1711121 -0.22025062 -0.06631698 -0.36803287 -0.4625305
0.12635371 0.0013492908 -0.2851641 0.30925143 0.027481545 0.4070613 -0.1827912 -0.45658252
-0.19306189 0.010825336 0.288869 -0.00061664573 0.049666587 -0.054707285 -0.63221085 -0.24291636
-0.4511118 -0.23777045 -0.281825 -0.40020946 -0.19214515 0.11955417 -0.24518493 -0.27918836
0.10388359 -0.50414175 0.22691381 -0.058800016 0.21711601 -0.14744975 -0.24739932 -0.5237616
-0.0011415244 -0.22471814 -0.29630175 -0.034586508 0.0688721 0.124548234 0.32536244 -0.3917555
0.1416828 0.30111086 0.8738467 0.049563758 -0.5101273 0.04580318 0.35933256 0.32660595
0.40384835 -0.0118751805 0.36268386 0.49473408 -0.17016187 -0.30159968 -0.09555306 0.08646807
-0.6096162 0.7303077 0.26581484 -0.7507608 -0.7181405 -0.023881068 -0.29239565 0.4324326
-0.08068042 0.123385996 0.16060889 0.108079344 0.16445883 0.07078206 0.008534074 -0.20743936
-0.32233205 0.16953225 -0.07056362 -0.11694511 0.082483694 -0.5762306 -0.4185299 -0.4343028

Aslayer4.0.bias f4 [16]
00000000: 51c7 403e 1624 ed3d 3e03 e03c 536f 823d
00000010: 5311 8c3c 4b24 9cbe b011 0a3b 837b 143e
00000020: 0333 1abf 6e28 36be b2ae 80bf 889e dd3e
00000030: 987f c13d 5bed 4bbe 822a a3bd 65b9 4f3b
0.18826033 0.115791485 0.027345296 0.0636889 0.017098105 -0.3049644 0.0021067671 0.14500241
-0.6023409 -0.1778886 -1.0053313 0.43285012 0.09448165 -0.19914763 -0.07967092 0.0031696197

Asfinal.weight f4 [7, 16]
00000000: fa19 8dbe 2c28 abbe d294 dfbd 57c3 b53e
00000010: f492 bf3c 81b2 093f 1451 5d3d 2e0e e43d
00000020: d549 7c3e 7d06 c43d d069 dc3e 90ef 8bbe
00000030: 61a0 b33e 0315 563e d85d 773e 7686 093f
00000040: ef6d 493e 0e19 033f f76f b0be 9952 f8bc
00000050: cb85 dfbc 1bc6 973e 4924 72be a451 7ebf
00000060: 10ea 013e 86ac 163e 0bc4 97bd d180 b83e
00000070: d143 ca3e ea4c c3bd 2e09 493e d675 8f3e
00000080: 5b23 3c3e 8115 0e3e 6d44 3d3e 2999 a93e
00000090: 4e10 f4bd 887e 043f f5b3 e0bd 063b b8be
000000a0: f65d 69bd c3e4 263d 1833 83bf 8f2a b5be
000000b0: 5c9d 1b3d e111 513e d5bf 203e 08f8 b0be
000000c0: 38bb 5cbe 5dea 853d bced e13e 2e48 02bf
000000d0: ff4e 97be d3a2 8f3e a3eb 403d 4949 243e
000000e0: 7f0d 4abf 8e1e 0a3a 48f9 3c3d ca42 143e
000000f0: 4884 3ebe 6790 8b3e a72c 4f3e 0cbc f7be
00000100: cf4c 9ebe 81e8 f43d 7a6d 11be c7bc 2e3e
00000110: 3925 a4bd e777 e13e 7892 d23d 5f13 a23e
00000120: 5c26 183e e467 06bf 7976 0c3d 35da c93e
00000130: 8a94 f23e dc3f d7bd 3768 b3bf 8947 d33d
00000140: 363b bb3e e936 ae3e 3ceb 05be 2dfe a7bd
00000150: ab45 fa3d 2ab4 bc3e 184f c23e 8e7e ad3e
00000160: 1e66 953e ef68 0ebf b775 103d 7d4a 9cbe
00000170: 0780 23bf 791e a8be 53d8 353e 4fdc 09be
00000180: fb83 8bbc 5971 ecbe 3476 5abe 9b6e c5bc
00000190: a263 963e 503c 93bf 1003 47be 53cd d43e
000001a0: 5c10 193d d196 973d cbaa 7b3e c2d0 6fbe
000001b0: 47d9 983c e3c4 8c3e 2203 ab3e 3ae7 873e
-0.2755888 -0.33429086 -0.10917057 0.35500595 0.023385502 0.53788 0.0540324 0.11135517
0.2463754 0.0957155 0.4304948 -0.2733121 0.35083297 0.20906453 0.24156892 0.53720796
0.19670843 0.51210105 -0.34460422 -0.030312823 -0.027285477 0.2964333 -0.23646654 -0.99343324
0.12686944 0.1471425 -0.07410439 0.3603578 0.39504865 -0.095361546 0.19632408 0.2801959
0.18372862 0.1387539 0.18483134 0.33124664 -0.11917172 0.5175557 -0.10971824 -0.3598253
-0.056974374 0.040745508 -1.0249968 -0.35384032 0.037991866 0.20416977 0.15698178 -0.34564233
-0.21555793 0.06538842 0.4412669 -0.5089139 -0.29552457 0.28053913 0.04709972 0.16043581
-0.78926843 0.0005268835 0.04613617 0.14478603 -0.18605149 0.27258608 0.20231877 -0.48385656
-0.30917975 0.11958409 -0.14201918 0.170642 -0.08014912 0.4403679 0.10281843 0.31655404
0.14858383 -0.52502275 0.03429267 0.3942429 0.4737895 -0.10510227 -1.4016179 0.103163786
0.36568612 0.34026268 -0.13078016 -0.08202777 0.12220319 0.36856204 0.3795097 0.33885616
0.29179472 -0.55628866 0.03526851 -0.3052558 -0.6386723 -0.3283575 0.17758302 -0.13462947
-0.017030707 -0.46180227 -0.21334153 -0.024100592 0.2937289 -1.1502781 -0.19434762 0.415629
0.037369117 0.07401813 0.24576871 -0.23419479 0.018658293 0.27493963 0.33400828 0.265436

Asfinal.bias f4 [7]
00000000: abcc 58bf 6d5a c83d c07e 28be 358e 50be
00000010: 048b e43e abf8 643e 5899 c43e
-0.846873 0.09782872 -0.16454601 -0.20366748 0.4463731 0.22360484 0.38398242

Vlayer1.0.weight f4 [16, 140]
00000000: 4f0c 903e 3601 a23d e909 c6be d7ec 82bc
00000010: bfb2 92bd 9d71 c33f f1dd a839 6319 d03e
00000020: 7e77 db3d 71c1 bbbd f413 463d 21f5 883d
00000030: 3c81 1c3d 5573 f1bc 73ee 843d c4b8 6cbc
00000040: 254f cdbc c719 97bc ead7 9fbd e22c 90bc
00000050: 23ce 93bd 6e09 803d d3ec 9bbb 27e4 9fbc
00000060: 6c5e e83c 23a1 fbbc e347 1d3d 97a7 c53d
00000070: 6ad6 743d 36e5 583e dee9 d53d 7887 633d
00000080: d29f a53d 9e53 943d b3c8 693d a8e9 d23c
00000090: e575 8ebd ff0d 423b 6b8f 0e3d 3058 1d3f
000000a0: 82fe 633f ac5f 7d3e 407d aebd 3902 f8bd
000000b0: 396a 3cbd 9a95 793e 185e 4e3e f997 3d3e
000000c0: f05c 053f 3704 27bd 9687 c33d fe16 c03e
000000d0: 6441 8dbd baab a63d c2c9 ff3d d350 853b
000000e0: c789 a63d b7e8 acbb 92f0 0d3e 2b26 093c
000000f0: 1f1e f33c 8df2 8cbd 8815 a03d aa1f a93c
00000100: 9400 563e 2a28 cc3d 14aa eebd b953 1cbe
00000110: 9c92 ea3d ffb2 a03d 3513 c93c 1353 07be
00000120: d46f 863d 0acb 903d 392f 283e 4a73 803c
00000130: 5b11 f4bd 070e 613c dd16 983d 77c9 013e
00000140: 0445 1bbc 60f6 22be d010 103e c56e ed3c
00000150: 6c4f 803d 49e7 8ebd 7473 65bd 6979 d43b
00000160: 0456 6b3d a6fe 983c bf68 d0bb 9902 bdbc
00000170: 468d 78bb 6ce0 893d 9980 29bd 7caf 57bd
00000180: c556 25bd 2c63 98bc e7b0 1dbd 3f81 e43c
00000190: 7369 36bd 1e44 b9bd cae5 19bc c40d 383c
000001a0: 6af5 3dbd b40f b7bd 1ffe ad3c b7b7 f0bd
000001b0: 449d c0bd a3d5 73bd 8f63 70bc 9202 dc3a
000001c0: 2f78 0bbd c092 8bbc 00d0 693d e593 bbbd
000001d0: 1f64 d63d d2b0 0ebd 8dc4 36bd 3eb2 fbba
000001e0: 0e13 19bd c644 77bd be0c 45bc f93c 32bd
000001f0: c72e 263e 958f c33d 80f1 a13d b703 183d
00000200: 295c da3b 0d41 87bd 1dd9 6fbc 9726 22bc
00000210: 5003 13bd 5352 4c3c df0d 473d 537d c5bd
00000220: c996 3abc abb1 1fbc 479b 723d 84a8 abbd
00000230: d19b d03d f7da 4fbe 0f7f 133e f938 76bf
00000240: 12f2 993e efb0 5a3d 0e40 b0bb 4618 e13e
00000250: b9a4 e2bd d6d6 fdbb 192c 89bc 0b15 c7bc
00000260: dbf8 36bb 8521 d13c 0580 623c bd85 2c3b
00000270: 21b7 84bb 3485 13bd 9130 433c 53b3 a73d
00000280: e831 463d 4b89 2c3d 0db9 063d a889 4dbd
00000290: ef0f 133d 94e8 d93c bc2e 383d fbc5 343e
000002a0: 48db 223e 5269 fd3d 87b0 b5bd f036 0bbe
000002b0: 0577 34bd 05e2 bebd 18ea 303d f85f 58bc
000002c0: 6ae0 513e 6e1c b33e 1ea6 4b3e 0535 01bf
000002d0: 8e61 23bf 1701 4cbe 3a11 3d3e 6c64 56be
000002e0: ecac 6cbe 007f b03e 31b4 c93e 11d6 6c3e
000002f0: 6710 533e 8a95 1abe b572 65bf 63af 70bf
00000300: af9d 48be 9043 b1ba e8e7 4eba 0fe5 163b
00000310: f2fa 76be 5c4c 22be feb0 843e a33c 22be
00000320: 53f9 efbd c4f9 e53d f92b ed3c a7ae 6a3e
00000330: 53fd ed3d 2ea8 1dbe bc3a 96be 6b47 f13d
00000340: 774a a0bd 4797 3fbe a71e 2abe 387b 55be
00000350: a348 e0bc 96b3 c23d 4f18 f73d 1a26 debd
00000360: 1fd7 bfbd a8e1 dc3d bd22 ffbd 9cd0 efbd
00000370: 8a29 f1bd ed33 76bd 23cf 95bc 1ae9 073e
00000380: 6805 a8bc a207 873c dc16 abbc 52b1 00be
00000390: 2320 eebc ac16 1a3d 27b2 01bd d06d 013d
000003a0: d560 0fbd 08f9 6f3d 3b9f ad3d b2c8 753d
000003b0: e351 38bc 7a5a 50be ee19 db3c 891e 8d3d
000003c0: 38bb fb39 7c24 a33d af29 aa3c 9eec b83c
000003d0: 5b48 7f3d 7e93 4cbd e36c 88bd 01e6 053d
000003e0: 401a 8f3c 9b8a c33c 68b0 353d d9be 3f3d
000003f0: 0164 b13c 1723 96bc 5517 643d 6b11 ae3d
0.2813439 0.07910387 -0.38679436 -0.015982075 -0.07162999 1.5269047 0.00032208816 0.4064437
0.10716151 -0.091677554 0.048358873 0.0668738 0.038209185 -0.02947394 0.06490793 -0.014448348
-0.025062153 -0.018444909 -0.07804854 -0.017599527 -0.07217052 0.062517986 -0.0047584563 -0.019517971
0.028365336 -0.030716484 0.038398635 0.09651106 0.059774794 0.21181187 0.10444997 0.055549115
0.08087124 0.07242511 0.057076167 0.025746182 -0.0695608 0.0029610393 0.034804743 0.6146269
0.89060223 0.24743527 -0.08519983 -0.12109799 -0.04599974 0.24373475 0.20153081 0.18515004
0.52094936 -0.040775504 0.09547345 0.37517542 -0.06897238 0.08138223 0.12489654 0.004068473
0.08131748 -0.005276765 0.13861302 0.008370916 0.029677449 -0.068822004 0.07816607 0.020644981
0.20898658 0.09968598 -0.116535336 -0.15266313 0.11453745 0.07846641 0.024545291 -0.13215284
0.06564298 0.07069977 0.16424264 0.015679974 -0.11917373 0.013736255 0.07426236 0.12674509
-0.009476904 -0.15914297 0.14068913 0.028983483 0.062651485 -0.06977708 -0.056018308 0.0064842
0.057455078 0.018676113 -0.006360143 -0.023072528 -0.0037926002 0.06732258 -0.041382406 -0.05265759
-0.040365953 -0.018601976 -0.038498785 0.02789366 -0.044534158 -0.090461954 -0.009393165 0.011233751
-0.046376623 -0.08938542 0.021239338 -0.11753791 -0.09404996 -0.05952991 -0.014672174 0.0016785434
-0.034050163 -0.01703775 0.05708313 -0.09159068 0.10468315 -0.034836598 -0.04462104 -0.0019202901
-0.037371688 -0.06036832 -0.012026964 -0.04351518 0.16228782 0.095488705 0.079073906 0.037112918
0.0066638184 -0.06604204 -0.014639166 -0.009896896 -0.03589183 0.0124707995 0.048597213 -0.09643044
-0.011388489 -0.009746949 0.059230115 -0.08381751 0.101859696 -0.20298372 0.14403938 -0.96180683
0.30067497 0.053391393 -0.0053787297 0.43963832 -0.110665746 -0.0077465577 -0.01674466 -0.024302026
-0.0027919326 0.025528679 0.013824468 0.0026324831 -0.004050151 -0.036015704 0.011913435 0.081885
0.048387438 0.04212312 0.032891322 -0.050180107 0.035903867 0.02660016 0.044966444 0.17653649
0.15903962 0.12373604 -0.088715605 -0.13595176 -0.04405882 -0.093204536 0.043192 -0.0132064745
0.20495763 0.34982628 0.19887587 -0.50471526 -0.6382073 -0.1992229 0.18463603 -0.20936745
-0.2311284 0.34471893 0.39395288 0.23128535 0.20611726 -0.15096107 -0.89628154 -0.9401762
-0.19591402 -0.0013524164 -0.0007892833 0.0023024713 -0.24119166 -0.15849441 0.25916284 -0.15843444
-0.11717477 0.1122928 0.028951632 0.22918187 0.116205834 -0.15396187 -0.29341686 0.117812
-0.07826703 -0.18710051 -0.16613255 -0.20847785 -0.027378386 0.095069095 0.12065183 -0.10847111
-0.09367203 0.10785228 -0.12457798 -0.11709711 -0.11775501 -0.060108114 -0.018287247 0.13272515
-0.02051039 0.016483132 -0.020884924 -0.12567642 -0.029068058 0.037619278 -0.03166404 0.031598866
-0.035004456 0.058587104 0.084776364 0.06000585 -0.011249992 -0.20347014 0.026745763 0.0689059
0.0004801394 0.07965943 0.02077183 0.022573765 0.062324863 -0.049945347 -0.066613935 0.032690052
0.017468572 0.023869803 0.044357687 0.046812866 0.02165413 -0.018327279 0.055686314 0.08499416

Vlayer1.0.bias f4 [16]
00000000: 7c32 b9bb f77b 88bd 5ac6 64bd ffb2 efbd
00000010: 0454 b23d d9d1 3dbd fb2c 0e3c d282 ec3b
00000020: aad9 2dbd 5ffd 1f3d 4b6e cebd 8b9b 6d3d
00000030: 94b1 c9bb 42b5 0f3d abe5 c9bd 7eb4 883d
-0.00565177 -0.066642694 -0.055853225 -0.11704063 0.08707431 -0.046342704 0.008677716 0.0072177434
-0.04244391 0.039059993 -0.100796305 0.058009665 -0.006155202 0.03508497 -0.09858259 0.06675051

Vlayer2.0.weight f4 [16, 16]
00000000: 7d94 6e3e 29eb c1be 17e0 953e 23da c93e
00000010: 4de0 a63e 9870 5abd 045a a73d cdca 1f3c
00000020: 7074 c53d 651d bfbe 4efc bb3e 151b 513d
00000030: b620 8abe 1929 93bd c6fc eebd 7cbd a13e
00000040: 83ce 7dbd 7a4f 913e 6acc 823a 660a 973c
00000050: 746c ddbe 1071 073e 9d0e 803e 9856 153e
00000060: eb7d 2e3e 635e 6d3e 691c 14be 0605 ae3e
00000070: 55e8 813e 8357 3f3c a946 b73d acf1 54be
00000080: f3c2 203d 4f16 58be 9232 f93c 82aa 983e
00000090: f78e f73d 82f3 dbbe 0af3 cdbe aee6 6bbe
000000a0: 33e3 333e dd30 4c3d 9dbf e63e ac44 07be
000000b0: 9c16 c0be 7233 b4bd 3396 5f3e a4da 8fbe
000000c0: 39a1 69be d2f5 43be 29a1 21be 8a82 e93d
000000d0: 70f1 ff3c 462c edbd 4f31 8abd 589e 73be
000000e0: 497c 25be 08da 83be 6e2d 6cbe 59a3 c13e
000000f0: cbe5 68be cbb2 8ebd 7f49 b9be 19c6 ffbd
00000100: cdab 95be c47e bebd adcd 933e c27a aebe
00000110: 0a85 84be 209a 27be 07ba 093d b2d3 6e3e
00000120: 5020 16be 6962 4e3e b4a4 9f3e cb6c b7be
00000130: 6b9a 84bc 09cd bcbd 4650 973e 0e26 3bbe
00000140: e995 3a3e fc44 59be ad18 6ebe e2ce 4d3d
00000150: 0dbe afbe a90c 38be 2fd2 bb3d 7455 d43d
00000160: eac1 b13d 156b 5ebd 2969 983e 2c3b 5c3e
00000170: f53c 00be a0e7 393e a7b0 0c3e 8fab 3cbd
00000180: e0b2 f9bd b620 64be cb7a e3bd 5d77 0cbe
00000190: ea60 ec3e 8c41 60be fd4a d5b9 65f2 c83b
000001a0: 5f5f 2b3e b78a f83c b8aa 1bbd 0fa9 6ebe
000001b0: bd7d 00bf d27d acbe 2319 c0be 58e0 463e
000001c0: 822e b3bd 698f ffbd 0b69 333e 647b f6be
000001d0: ae07 aabe ba7b 0dbe d46c 183c 1dc2 023f
000001e0: ac93 aa3d 3656 b73e 746d 2ebe 0c44 f7be
000001f0: 3356 79bc c7ff 643e 00e8 c3be af9a bb3c
00000200: 4170 fd3d 8f51 33be 459f 9fba e2f3 583d
00000210: 500a 9f3a ad49 9d3d e08a 8a3e 8bda 433f
00000220: 58bd 0c3e fb17 fd3e 3f70 9cbe 1750 bd3e
00000230: e0b3 553e 79a6 893e 6a4a e5bb 9421 c93b
00000240: 91b8 1abe f2b7 a63d e439 e9be 6c19 633d
00000250: cd3e ad3e 499b 8b3d b47c 2abd f836 a0bb
00000260: 12fb 6c3c 0efe 273e 8f45 0bbd 94ea a73e
00000270: 48d3 76be 416a bcbe ea68 15be 8052 3dbe
00000280: 9431 89be 42e9 c4be 8846 1dbe 5f12 60be
00000290: 4555 6a3e 47fa 4a3e f9c2 263f 4bf7 103f
000002a0: cfc3 a43d 9799 223e 68c8 113d dee4 64be
000002b0: 84a9 6fbf d802 d8be 0f35 683e 8132 15be
000002c0: 5a3c 083d 948f 9d3e 771a 333e d6e5 f53e
000002d0: 109f a6bd 39cd bbbd 0d81 72bd 5c19 2d3e
000002e0: 9848 703d 1c97 c1be 685e 1e3e 9d45 dabd
000002f0: 28b0 0a3f f6cb fdbd c65b 0fbe 93ed e33d
00000300: b80c 88be 8924 55be a06c 2f3e 5605 12bd
00000310: ae83 2cbe a747 b33e b9af 43bd ff98 263e
00000320: 2729 d7bd 92ce 6b3e 333b 9f3e e069 a13d
00000330: 9e69 ad3d d894 adbd 5e8f 823e 2710 32be
00000340: 296b 1dbe d81e bdbd 257c 473e 6292 20bd
00000350: a5a7 fd3d fa12 6ebe 5a7f 443e 93dd 963d
00000360: 0352 1d3e 4d91 c83c 43ec e9bb 4bc8 b2be
00000370: 87f2 16be 3bdc c23e 4ac2 92be aa62 b03d
00000380: f583 2dbe 6933 f93d f003 b73e 61b1 84be
00000390: b834 4d3e db31 81bd 477f 883e 675b 413c
000003a0: d513 b53e 6638 5cbe ad85 b63d 788d 62be
000003b0: 3a65 db3b fe7e ffbe 9967 173d 5187 983c
000003c0: df49 27be 3ed2 f93d 0955 edb9 d90b 593d
000003d0: bea8 3c3d 07cf 55be 526e ec3b 9931 fc3d
000003e0: b767 963e 2310 c2b9 25ac 36be 8cc6 933d
000003f0: b227 583e a342 afbd 5abd d63e ca3b 183e
0.23298831 -0.37874725 0.2927253 0.39424238 0.32593003 -0.053330034 0.08171466 0.009752941
0.09641349 -0.37327114 0.3671593 0.051051218 -0.2697808 -0.07185573 -0.116693065 0.31589878
-0.061964523 0.28380948 0.0009979133 0.018437576 -0.43246806 0.13226724 0.2501115 0.14583814
0.17040221 0.23180537 -0.14463963 0.33988208 0.25372568 0.011678579 0.08949024 -0.20795316
0.039248418 -0.2110226 0.030419622 0.29817587 0.12087815 -0.4295922 -0.40224487 -0.23037216
0.17567138 0.049851287 0.45068064 -0.1320979 -0.3751725 -0.08798875 0.2183464 -0.28096497
-0.22815408 -0.19136742 -0.15784134 0.114018515 0.031243056 -0.1158071 -0.06747686 -0.23790872
-0.16160692 -0.25752282 -0.23064205 0.37819937 -0.22743909 -0.06967696 -0.36188886 -0.12488956
-0.29232636 -0.093015224 0.28867856 -0.34078032 -0.2588275 -0.16367388 0.033624675 0.23322943
-0.14660764 0.20154728 0.31180346 -0.3582519 -0.016186913 -0.09218795 0.2955343 -0.18276235
0.18221249 -0.21217722 -0.232516 0.050246127 -0.34324685 -0.1797358 0.09170949 0.103678614
0.08679564 -0.05430134 0.2976773 0.21506947 -0.12523253 0.18154764 0.13739263 -0.04606205
-0.12192321 -0.22278103 -0.11107405 -0.13717408 0.4616769 -0.21900004 -0.00040682397 0.0061324113
0.167356 0.030339582 -0.038004607 -0.23306678 -0.5019186 -0.33689743 -0.37519178 0.19421518
-0.08749105 -0.12478525 0.1752054 -0.48141015 -0.33208984 -0.13816729 0.00930329 0.51077443
0.083289474 0.3580796 -0.1703394 -0.48294103 -0.015218305 0.22363196 -0.3826294 0.022900907
0.12374926 -0.17511581 -0.0012178203 0.05296696 0.0012133811 0.07680068 0.27059078 0.76505345
0.13744104 0.49432358 -0.30554387 0.36975166 0.20869398 0.2688482 -0.0069973962 0.006138036
-0.15109469 0.081405535 -0.4555198 0.055444166 0.33836976 0.06816728 -0.041622832 -0.0048893653
0.014464157 0.16405508 -0.034001883 0.32796156 -0.24104035 -0.36799815 -0.14590803 -0.18488503
-0.26795638 -0.38459212 -0.15358937 -0.21882008 0.2288409 0.19822036 0.65141255 0.5662734
0.0804516 0.15878902 0.035591513 -0.22352931 -0.93618035 -0.4218967 0.2267649 -0.14570047
0.03326068 0.30773604 0.17490564 0.48026913 -0.081358075 -0.091700025 -0.059205104 0.16904205
0.05866298 -0.378106 0.154657 -0.10657809 0.54175043 -0.12392418 -0.13999853 0.11129298
-0.26572204 -0.20814718 0.17131281 -0.03564962 -0.16847107 0.35015604 -0.047775004 0.16269301
-0.10505896 0.23028019 0.31099853 0.07881522 0.084674105 -0.08475655 0.25500005 -0.17388974
-0.1537291 -0.092343986 0.19480951 -0.0392021 0.12385491 -0.23249426 0.19189206 0.07366481
0.15363316 0.024483347 -0.0071387603 -0.34918436 -0.14740954 0.38058648 -0.28663856 0.08612569
-0.16944869 0.12168009 0.35745192 -0.2591658 0.20039642 -0.06308337 0.26659605 0.011801577
0.35366693 -0.2150589 0.089122154 -0.22124279 0.0066954168 -0.49901575 0.036964033 0.018619211
-0.16336773 0.12198304 -0.0004526752 0.052989814 0.046059363 -0.20879756 0.0072152996 0.123141475
0.29376003 -0.00037014586 -0.17839105 0.07215604 0.21108893 -0.08557632 0.4194134 0.14866558

Vlayer2.0.bias f4 [16]
00000000: 6402 b23b 59bb b83d d2f2 c6be 3962 0d3d
00000010: 360d d63d 8312 583c 1a62 103c 5cb7 903e
00000020: ae60 7a3e 4374 27be 395b c53d 83c1 62be
00000030: 2b44 94bb ea2d 16bd ece5 34bd 72ed 6b3d
0.005432414 0.09020109 -0.38857132 0.0345175 0.104517385 0.013188007 0.008812452 0.28264892
0.24450943 -0.16352944 0.0963654 -0.22144131 -0.004524728 -0.03666488 -0.044164583 0.057599492

Vlayer3.0.weight f4 [16, 16]
00000000: 6cd6 40be c4da ccbd 7c40 c0bd afb6 05bd
00000010: e738 fcbd 20ef 823e 296f bdbd 2bba 91bd
00000020: cd76 633e d73b e6bd b9cf b93e fa44 20bb
00000030: 386a 013e 6da1 bb3e 39c5 cabd fe6f 8fbd
00000040: 104a c23e f20a 2ebd 01db b13e d229 babd
00000050: 1de5 78be 9e5f 593d 4022 623e ba1a 753d
00000060: 2473 babc 15a0 a6bb 897d fa3d 195b 03be
00000070: 8987 843e 4569 dbbd 52b1 393d 8df7 0d3e
00000080: 30f7 093e fc3b 87bd abb2 0b3f 6e87 f13e
00000090: b5eb fd3e 17a7 52be 9e11 2ebf fd84 c0be
000000a0: a868 6ebd 423e 98bd dbd9 c3bd 5adc 2fbe
000000b0: d111 6d3e 24a8 59be b9cf 203f 641e 553e
000000c0: 01bd 18bd 9c02 a4bc 18cf 9e3e a7dc 5abe
000000d0: 5d95 ad3b 3fee 9b3e ef24 d2be 47d3 553e
000000e0: 7b4e a2be 0c22 a7be 31d7 b7be b9c7 0a3e
000000f0: d1a4 293e 927f f1bd 0cdf 76bd bf81 333e
00000100: a3cf aabe 0f38 e0be 72e0 e13e af5d 98bd
00000110: 0090 913e 29c3 5f3e 630f c5bc 6fdb fb3d
00000120: 5c17 0abf f045 d8bd f26a 9a3e 550a 90be
00000130: 354b 103f cf45 cbbe 0d21 ba3e bce9 bb3b
00000140: a07b 79bd ebde 8abe 769a e83c 95da b0bd
00000150: 5731 933e c2a9 acbd f8d6 d93d ba69 d83e
00000160: 3060 3d3e f7d8 453c 6945 083d 457f 0fbe
00000170: 19cd 563e c814 363e e8dc 9b3d 0f90 bf3d
00000180: 98db 3ebe f0ca 543e 0c3e 443e 5e0a af3d
00000190: c32f 643e 987a ea3e 596a ad3e 6189 cabd
000001a0: 8c30 1b3e 86cd b73d 78ec 963e 7af4 c5be
000001b0: a72b 043f 8258 aabd 4c1c 443e e848 453d
000001c0: 1007 9a3e 3b98 13bd 5c89 f7bd 5a3e 1ebe
000001d0: 6eba 4ebe bc0e 473e ac2d 783e f21d 8ebd
000001e0: d63b a03c d115 4c3e f832 313e 1d45 c4bd
000001f0: 9da6 8abc 59b3 b63d a63d 8c3d fca8 1b3e
00000200: db3e 44be f449 e6bd 841e 90bc f32a 993c
00000210: 590f 7bba 7149 853e a6f3 4cbf 14e0 223e
00000220: a209 24be cfb7 69be 2f8b 9fbb 0d02 873e
00000230: fd99 693e 19ca ddbd ba5c a03d d27b abbd
00000240: 74b3 a5bd 5ad3 a7bd a096 963d 1900 a1bd
00000250: 8cc3 053f 9307 dd3d fe25 f73d e77e c2bd
00000260: 71f7 adbe 4c71 6dbe 9a78 283e 5947 06bf
00000270: bdde 7a3e e358 c7bd 7c15 513e fdc4 eb3d
00000280: e1e6 813d cfb5 ab3e b609 bebd 4e37 a7be
00000290: be14 33be bb7d 96be 0ffa f93d fa2f 803e
000002a0: 1865 1b3e fdf9 1ebb 5436 63be 40a7 813e
000002b0: 48f4 9139 c935 bcbe 4828 d4be 9b10 08be
000002c0: b61d 233e c489 cc3e f8da 65be e2e2 fabd
000002d0: c88a 3d3e a518 9a3e 60e4 fa3d f4c7 943e
000002e0: de42 ee3d c5d3 063f 5659 cc3e bb79 713d
000002f0: 32c8 233e 0d5b 6bbe 1f94 813e 9710 a63e
00000300: e17b 83be bca6 08bf 1631 fc3e fe5e d43e
00000310: 12c1 e23e a839 49be 0c1e d6bd 040b 3abe
00000320: 0203 dabe 085f 78bc 1622 b33e f52d f4be
00000330: 12f9 953e 848f 69be c5b4 443e 4e84 113f
00000340: 03eb 0fbe 2210 f0be 20ee b13e 7e43 8a3e
00000350: 44eb ca3e 0ee3 33bd 7ffa 2bbd 0e45 9dbd
00000360: 4b99 07bf 9928 0ebe a0ab c03e 871f 40bb
00000370: daea d43e e457 77be f018 d23e 8c85 30bd
00000380: 120d 8bbe 085c 4f3e 4628 8dbe 13cc 7abe
00000390: de03 313e 6c5f 0dbe 6b6d 1ebe d792 ab3e
000003a0: a03d 933d a4bc f5be 5032 293e a572 6dbe
000003b0: bd63 2e3e 2af1 bebe a0fa 9abe 5abd 97be
000003c0: 66ae 193d ee9d 163e 44b7 213e 6c2f 9e3e
000003d0: 094a 61be 01c2 1bbe 85eb 763e c262 ec3d
000003e0: 109c 07be d399 043e 4d34 3c3d c50a 08be
000003f0: c54a 38bd 8bc1 9e3e 9876 813e df2a 54be
-0.18831795 -0.10002664 -0.093872994 -0.032644924 -0.12315541 0.25573063 -0.09249718 -0.07115587
0.22213288 -0.11241882 0.36291292 -0.0024455176 0.12638175 0.36646596 -0.099008985 -0.07003783
0.3794713 -0.042490907 0.347374 -0.09090008 -0.2430615 0.053069703 0.22083378 0.05983994
-0.022759981 -0.0050850012 0.12230975 -0.1282772 0.25884655 -0.10713438 0.04533512 0.13863964
0.13473201 -0.06603238 0.545695 0.47173637 0.49593893 -0.20571552 -0.6799563 -0.37601462
-0.058205277 -0.0743375 -0.09563037 -0.17173901 0.23151328 -0.21255547 0.6281696 0.20812374
-0.037289623 -0.020020775 0.31017375 -0.21373235 0.0052973465 0.30455205 -0.41043803 0.20881377
-0.317005 -0.32643163 -0.35906366 0.1355275 0.16566779 -0.1179191 -0.060271308 0.17529963
-0.3336154 -0.4379277 0.4411655 -0.07439744 0.28430176 0.21851791 -0.024055189 0.12297713
-0.53941894 -0.105602145 0.30159718 -0.28132883 0.56364757 -0.39701697 0.3635334 0.0057346504
-0.060908914 -0.27123198 0.028393965 -0.08635441 0.2874858 -0.08430816 0.10636705 0.42268163
0.18493724 0.012075654 0.03326932 -0.14013393 0.20976676 0.17781365 0.07610494 0.09353649
-0.18638456 0.2078054 0.19164294 0.08546899 0.22283845 0.45796657 0.338702 -0.09889484
0.15155238 0.08974747 0.29477286 -0.38663083 0.5162911 -0.08317663 0.1915142 0.048165232
0.30083513 -0.03603385 -0.12086746 -0.15453473 -0.20188305 0.19439214 0.24236172 -0.06939305
0.019559782 0.19930197 0.173046 -0.09583495 -0.01692515 0.089209266 0.06847696 0.15201181
-0.19164602 -0.11244574 -0.017592676 0.018697238 -0.0009577177 0.26032594 -0.8005928 0.15905792
-0.160193 -0.22824024 -0.004868887 0.26368752 0.22812648 -0.10829563 0.07830186 -0.08373226
-0.080908686 -0.08194609 0.07352948 -0.07861347 0.52251506 0.1079246 0.12067793 -0.09496861
-0.33977845 -0.2318775 0.16452256 -0.5245262 0.2449903 -0.09733751 0.20418352 0.11512182
0.06342865 0.33537146 -0.09279196 -0.32659382 -0.17488381 -0.293928 0.12205898 0.25036603
0.15175283 -0.0024257891 -0.22188693 0.25322914 0.0002783856 -0.36759785 -0.41436982 -0.13287584
0.15929303 0.39948857 -0.22446811 -0.12250306 0.18509972 0.30096927 0.1225059 0.29058802
0.11633848 0.52666885 0.39911908 0.05895398 0.15994337 -0.22983952 0.2530832 0.32434532
-0.2568045 -0.53379416 0.492562 0.41478723 0.44287926 -0.196509 -0.1045495 -0.18168265
-0.4258042 -0.015159376 0.34986943 -0.47691312 0.29291588 -0.22808653 0.19209583 0.56842506
-0.14054494 -0.46887308 0.34751987 0.27004617 0.39632618 -0.043917708 -0.04198694 -0.07679187
-0.5296828 -0.13882674 0.3763094 -0.0029315667 0.41585428 -0.24154621 0.4103465 -0.04309611
-0.2715841 0.20249951 -0.2756979 -0.2449191 0.17286631 -0.13805932 -0.15471427 0.33510467
0.071894884 -0.47995484 0.16523099 -0.23188265 0.17030235 -0.3729337 -0.30269337 -0.2963665
0.037519835 0.14708683 0.15792567 0.30895555 -0.22000898 -0.15210725 0.24113281 0.11542274
-0.13243127 0.12949304 0.045948315 -0.13285358 -0.04499318 0.31007037 0.25285792 -0.20719479

Vlayer3.0.bias f4 [16]
00000000: 4f90 93be 4a91 3ebe dae3 7fbe 4605 05bd
00000010: 571c bbbe c1d2 123e e277 93be ec8f 04bc
00000020: c91e 203e 1dda 0bbf bd4e ce3d c57e 83be
00000030: 5741 90be 3dd0 dbbe ed52 b13e 3459 623c
-0.28821036 -0.18610111 -0.24989262 -0.032475732 -0.3654506 0.14338209 -0.288024 -0.008090954
0.15636744 -0.5462969 0.10073612 -0.25682655 -0.2817485 -0.4293231 0.3463358 0.013815213
