Qtarget.pth (torch, 100649 bytes, 57 tensors)

Aslayer1.0.weight f4 [16, 140]
000000 17 00 b4 3d 5e 28 2f bc 60 1c 3d bf c4 cd 83 3d
       0.0878908 -0.010690777 -0.7387142 0.06435731
000010 8e 63 8d bd 59 a9 8f 40 15 f4 a8 3c 20 a8 8f 3d
       -0.06903754 4.4894223 0.0206242 0.07014489
000020 63 2b cd 3c eb 78 93 bd 1b 0b 71 3c 8b ce 44 3b
       0.025045102 -0.07200798 0.01471212 0.0030030336
000030 79 c9 11 3d 8f 19 65 3d e4 b4 72 bc b6 e9 8a bb
       0.03559253 0.055932578 -0.0148136355 -0.0042392863
000040 7e b1 65 bc ea 0a aa 3b 64 12 1e bc 62 df 97 bc
       -0.014019368 0.0051892893 -0.009647939 -0.018539134
000050 fb 62 3b bd 87 3b 24 3c e0 ec cb 3c 85 e8 52 bc
       -0.045748692 0.010023958 0.024893224 -0.01287282
000060 3a 72 c7 3a 6b ad 64 bd 52 41 de bc af bf fd 3d
       0.0015216537 -0.055829447 -0.027130757 0.12390076
000070 17 05 55 3c 64 bc 5d be d1 bd dd 3d b2 2b 4b 3e
       0.013001702 -0.21653897 0.1082722 0.19840887
000080 c9 32 c5 bd d3 01 d1 3d 88 a8 11 3e 85 c3 3e bd
       -0.09628827 0.10205426 0.14224446 -0.04657318
000090 90 ac 66 3c 1c d1 6c 3d b9 de b4 3d d7 47 8e 3e
       0.014079228 0.05781661 0.088315435 0.27789184
0000a0 19 27 c6 3c 38 6e c5 3c 06 15 7f bd b0 68 ac bd
       0.024188565 0.024100408 -0.06227591 -0.08418405
0000b0 ef 15 f8 bd d2 76 52 3c 47 12 18 3d 3b be c8 bd
       -0.121135585 0.012845712 0.037126806 -0.098019086
0000c0 39 b4 9c be 03 56 00 3e 7e d0 30 3e 28 59 21 3e
       -0.3060625 0.12532811 0.17267033 0.15756667
0000d0 d2 56 9b bd 87 f2 af 3d 5c b1 5f 3c 1b de 6a 3b
       -0.07584919 0.0859118 0.013653126 0.0035837952
0000e0 4d 84 2a 3d 68 94 7e bd 33 a5 96 3c fc 34 71 3d
       0.041630078 -0.06215325 0.01838932 0.05888842
0000f0 67 14 01 3e c6 d0 a0 3d 5c f8 ad 3c 92 71 64 3b
       0.12605439 0.078523204 0.021236591 0.0034857732
000100 bc 00 5f bd 2d 3a 7a bd 92 9e b7 bd 2f 35 9b 3c
       -0.05444406 -0.061090637 -0.08965792 0.018946258
000110 ec bd 3a 3d 35 f0 a5 3d 1f 8e 8c 3d c8 78 08 ba
       0.04559128 0.081024565 0.06863045 -0.0005205986
000120 dd e4 77 3a d2 44 df 3b be e4 91 3d 59 d7 ce bc
       0.00094564055 0.006813624 0.07123707 -0.02524917
000130 1b 32 4b bd 79 c0 21 bd 12 1e 04 3d a3 f7 0a 3e
       -0.04960833 -0.039490197 0.03225524 0.13571028
000140 53 ca 54 3d f5 b9 3e be 67 01 e4 bc 31 cc 0e 3d
       0.051950764 -0.18625624 -0.0278327 0.0348627
000150 c4 0c 09 be 46 f7 36 3a b1 82 48 bc b7 70 61 bd
       -0.13383776 0.00069795956 -0.0122381905 -0.055039134
000160 b1 3d 48 bb 4b 40 6b bd f5 37 28 bd ad 9f 2a bd
       -0.003055435 -0.05743436 -0.04106899 -0.041656185
000170 ea 33 b4 3d a0 dc 6a bc 4d 31 0f bd 0a 5d bf bc
       0.08798964 -0.014334828 -0.034959126 -0.023359794
000180 be a9 a2 bd b7 c9 01 3e 4a 43 2e 3d 63 a7 7c 3d
       -0.07942532 0.12674604 0.04254464 0.06168307
000190 7e 68 13 3c 89 81 95 bc 2b f5 ad 3c bc dc 0d 3d
       0.008997081 -0.018250244 0.02123507 0.034634337
0001a0 4d 89 70 3c ab 30 f2 3c f5 a4 0d bc ff a9 88 3d
       0.014681173 0.029564222 -0.008645286 0.06673049
0001b0 3a 2a 26 3d 1a 62 7a bd 6b 23 c1 3c 9a 51 1c 3d
       0.040567614 -0.061128713 0.023576459 0.03816376
0001c0 8a 94 b4 bb a9 0a 36 3d 5e 8a dd 3c 3e 75 97 bc
       -0.0055108713 0.04444376 0.027043518 -0.018488523
0001d0 69 31 21 3c 74 f0 9b bd 75 6c 08 bd 64 e3 90 bd
       0.00983844 -0.07614222 -0.033306558 -0.07074621
0001e0 9b 61 50 3d 08 35 33 3d 43 67 17 bd 18 28 06 3c
       0.050874334 0.043751746 -0.036963712 0.00818827
0001f0 82 4f 0e 3f 03 22 fb bd c0 63 91 bd 85 b8 95 3c
       0.5559007 -0.122623466 -0.07099104 0.018276462
000200 34 5e 86 3c f1 d7 6e bc 44 66 7c 3d 54 86 28 3d
       0.016402341 -0.014577852 0.061620966 0.04114373
000210 17 fc a3 bc 12 35 b8 3d ec 9a 8c bd 0f fd 28 3d
       -0.020017667 0.08994497 -0.068654865 0.04125696
000220 33 e7 01 bd fa 27 df 3d d1 18 70 ba 04 65 0c bf
       -0.03171463 0.10896297 -0.00091589714 -0.5484164
000230 5b 05 b2 3d bc 1e d0 bd 6b 05 f7 be 56 fc 00 3d
       0.08692428 -0.10162112 -0.4824632 0.031490646
000240 8f fd 77 3f da fe 37 3f 74 2d 93 3d f7 ff 84 bd
       0.96871275 0.7187325 0.07186404 -0.06494134
000250 c5 fb fe 3d 7a 44 ac bd 08 f6 ca 3d 40 98 fd 3d
       0.12450365 -0.08411498 0.09910208 0.12382555
000260 c7 55 ba 3c 1c 7a 05 be e6 01 61 3d 22 ee 2d 3d
       0.02274598 -0.13034862 0.05493345 0.04246343
000270 80 43 14 3c 4e eb cc 3d 2b 39 0d 3e 17 8e 9e 3b
       0.009049296 0.10005818 0.13791339 0.004838716
000280 f0 eb 28 bd 2e 7f 15 3e 15 0d 4f bf 7d 36 9b 3d
       -0.041240633 0.14599296 -0.80879337 0.07578752
000290 6f eb d2 bd 7d d6 c0 bd 32 19 03 3e 41 08 71 3e
       -0.10298812 -0.094159104 0.1280258 0.23538305
0002a0 ab ae f5 3e e0 6c d9 3d e0 ea 36 be 5a a9 b6 3d
       0.47984824 0.106164694 -0.17863035 0.0891902
0002b0 bc d9 83 3c 99 dd f3 bd 12 29 4a 3e e4 fe eb bd
       0.016095035 -0.11907501 0.1974223 -0.11523226
0002c0 b5 ed 91 bd c1 54 a6 3d 16 d1 0c 3e d9 b0 13 3f
       -0.07125417 0.08121634 0.13751635 0.57691723
0002d0 3a 66 d9 3e 8c 7a 24 be c1 cc 9a be e5 61 79 bd
       0.42460805 -0.16062373 -0.3023434 -0.060884375
0002e0 74 3c b8 be 95 1c 94 bd aa 49 3d 3d c0 13 3d 3d
       -0.35983622 -0.07232014 0.04621283 0.046161413
0002f0 93 ec 81 3e 28 a8 0d be cc cd 85 3e 2d 9a 3b be
       0.25375804 -0.13833678 0.26133573 -0.18320532
000300 17 88 01 bf da 80 1e bd 2b b7 a0 bc bb 8e c8 3d
       -0.5059828 -0.0386971 -0.019618591 0.09792849
000310 8d 40 1e 3e 19 c4 42 bd f9 a3 2c 3d 4e e9 37 3c
       0.15454312 -0.047550295 0.042148564 0.011225058
000320 06 f7 d0 bb 79 7e 34 be 3e 36 5c 3d da 10 4e bc
       -0.0063771037 -0.1762637 0.053762667 -0.01257726
000330 fc 68 02 be 33 5e b8 bd 6d 61 f0 3d 89 99 09 3e
       -0.12735361 -0.09002342 0.117373325 0.13437475
000340 3d 32 84 3c 84 92 0b be be a4 86 3d 7a 0d eb 3d
       0.016137237 -0.1363011 0.06574391 0.1147718
000350 16 0f 52 3d db b6 45 3c b1 22 4f bd 73 fd 17 be
       0.05128392 0.012067522 -0.050570194 -0.14842777
000360 ba 02 98 bd d1 df dd bd 6b ec ba 3d 87 38 fc bd
       -0.07422395 -0.10833705 0.091271244 -0.12315469
000370 8d 00 8d 3d eb ae c2 bd 4a c8 ac be 72 91 0a 3d
       0.06884871 -0.09506019 -0.33746558 0.033830114
000380 49 20 6b 3d 71 ad 9c 3c ad 55 18 bc 29 6f eb bc
       0.057403836 0.019125672 -0.00929777 -0.028739529
000390 a0 67 3c 3e 6a 3e d1 3d 98 3e 0f 3e ef 0c a3 3d
       0.18398905 0.10216983 0.13988721 0.07961451
0003a0 6f dc ec 3d 13 99 50 bd 4d a2 79 3c 9e 05 65 bd
       0.11565482 -0.050927233 0.015236449 -0.05591356
0003b0 01 0e d9 3a 4a d0 17 bd 9b 6e a5 3c 03 61 33 bd
       0.001655996 -0.037063874 0.020194342 -0.04379369
0003c0 40 ce 79 bd 7b 61 91 3d 95 5d d4 3d 0f f3 2a bd
       -0.06098771 0.07098671 0.10369412 -0.041735705
0003d0 e4 c6 9b bd a0 17 13 be c3 6b 2e be 06 96 ff 3c
       -0.07606295 -0.14364481 -0.17033295 0.031199466
0003e0 28 ba af bc 12 c1 c3 b9 24 58 df 3d 03 7e d0 3d
       -0.02145107 -0.00037337147 0.10905483 0.10180285
0003f0 de 71 22 3d 5d 99 37 3d 73 a4 7b bc de 24 d7 bc
       0.039659373 0.044823993 -0.015359032 -0.026262697

Aslayer1.0.bias f4 [16]
000000 42 ce bb 3d d9 7e a9 3d 0b fb e9 3d a9 ee 65 bb
       0.091702 0.082761474 0.11424836 -0.003508488
000010 f8 18 93 bd 28 7f 0d 3d f3 fd 76 3d ae 13 e5 bc
       -0.07182497 0.034545094 0.06030078 -0.027963486
000020 ad 15 5d bd 64 08 fa bb 94 2f cc 3d 7d 5a 21 be
       -0.05397575 -0.007630395 0.09970012 -0.15757175
000030 52 95 01 3d 6d fa c3 bd 33 28 03 3d 26 9d bc 3c
       0.031636544 -0.09569249 0.03202076 0.023024153

Aslayer2.0.weight f4 [16, 16]
000000 03 b0 ed 3e 11 d7 4e 3e 2f 91 86 be 2d 95 e0 be
       0.4642335 0.20199229 -0.2628264 -0.43863812
000010 69 df ef 3d 35 ae 03 3f 93 cc 7e be 4b bf d1 3d
       0.11712534 0.51437694 -0.24882726 0.10241564
000020 80 81 fb bd 43 5f d0 bd 19 bc 17 be 69 af 10 3f
       -0.122805595 -0.1017442 -0.14817847 0.56517655
000030 10 61 9e be cb 4a 7f be 52 58 94 3e a0 c5 e0 3e
       -0.30933428 -0.24930875 0.28973633 0.43900776
000040 ba 38 e7 3e 87 a1 8b 3e a1 74 56 3e ce c8 c3 3d
       0.45160466 0.27271673 0.20942928 0.09559785
000050 af 31 17 3e 88 0a 45 3e 66 6d c2 3a a8 27 08 bd
       0.14765047 0.19242299 0.0014833629 -0.033240944
000060 2a 1c 93 3e 75 e2 87 bd d3 4d 2e 3e 4f c8 ae be
       0.28732425 -0.0663499 0.17021875 -0.34137198
000070 5c 66 19 3e b0 e3 17 be a8 6e f0 3d 5b 9f 6c 3e
       0.14980453 -0.1483295 0.11739856 0.23107664
000080 ee 80 0d 3f 9c d3 97 be f4 e0 27 be 8e ad 83 3e
       0.55274856 -0.29653633 -0.16394407 0.2571835
000090 fd 25 a5 3e 3b a8 67 bd b8 9e 84 be 80 ed 41 be
       0.32255545 -0.05655692 -0.25902343 -0.18938255
0000a0 1b de ae 3e 3b ab f8 3d 79 fa 25 3e 94 1d 19 bc
       0.34153828 0.121420346 0.16208829 -0.009345431
0000b0 01 eb 27 be 03 d6 1e 3d 34 2c b0 be 93 72 85 bd
       -0.1639824 0.038778316 -0.34408724 -0.06515994
0000c0 bd b9 cc be 52 46 43 3e 38 c9 f7 3d 0c b1 3f 3e
       -0.39985457 0.19069794 0.12098926 0.18719882
0000d0 8f 70 00 bf d2 b8 7a 3d 54 36 44 3e 90 20 29 3e
       -0.5017175 0.061211415 0.1916135 0.16516328
0000e0 4d 4a ee 3d ab 42 83 be 4a 87 83 bc af f3 ae 3d
       0.116352655 -0.256368 -0.016055722 0.08542573
0000f0 a0 80 89 be ed 04 6c 3e 97 d3 27 3e b1 e2 0b 3e
       -0.26855946 0.23048754 0.16389309 0.13660695
000100 04 0a 84 be 5c e3 b7 3e a6 df c5 3d ff b2 da bd
       -0.2578889 0.3591565 0.09661798 -0.10678672
000110 b7 f9 83 be 38 3a e5 be 80 bd 31 3d ea a5 9d be
       -0.25776455 -0.4477098 0.043393612 -0.30790645
000120 ad 50 ba bd 51 92 08 be 11 5c 0e bd 6d 4c 67 be
       -0.09097419 -0.13337065 -0.03475577 -0.22587748
000130 71 45 a0 3e 10 5c 0a 3e 71 22 b6 bc 0e d2 55 be
       0.3130298 0.13511682 -0.02223322 -0.20880911
000140 f9 c7 44 3e 68 e7 13 be 54 a2 35 3e e3 25 65 3e
       0.19216909 -0.14443743 0.17737705 0.22377734
000150 8b 74 73 bd c3 21 0d bf 0a 7f d4 bd d6 d9 c5 3d
       -0.059437316 -0.5512964 -0.10375793 0.096606895
000160 92 39 ca be af 9a d9 3d 6a 62 e4 bd b8 f0 9a 3e
       -0.39497048 0.10625207 -0.111515835 0.3026178
000170 a0 d9 40 bd 5c 16 3c be f9 82 08 bc f2 c8 00 3e
       -0.047082543 -0.18367904 -0.008332008 0.12576655
000180 77 91 be 3e a3 af ee 3d ca ea fc bd a7 d5 cb 3e
       0.37220356 0.11654594 -0.1234947 0.3981144
000190 53 0e 3c 3e e6 65 ca 3e eb d5 ad be 14 25 9a 3e
       0.1836484 0.39530867 -0.3395227 0.30106413
0001a0 ef f4 90 be f8 4f e0 3d 2a 0e 36 be 14 f0 4d be
       -0.2831187 0.10952753 -0.1777884 -0.20111114
0001b0 00 fd 17 bd db c7 ab be 45 e1 4a bc 40 60 8c bd
       -0.037106514 -0.33550915 -0.01238281 -0.06854296
0001c0 37 d4 f4 3d 48 bb b7 bd 7a da 22 3e c7 96 05 3e
       0.11954539 -0.08971268 0.15903655 0.13045798
0001d0 00 b2 99 bd 48 0b ae bc 81 53 ef 3d 9f 48 21 3d
       -0.07504654 -0.021245614 0.11685849 0.039375897
0001e0 b0 51 81 be 13 0c 50 be 94 1a 18 be ea 75 93 be
       -0.25257635 -0.20317106 -0.14853889 -0.288009
0001f0 55 b3 70 be b8 89 2e bf c2 2e 22 bd 10 55 a0 be
       -0.2350591 -0.6817889 -0.039595373 -0.31314898
000200 8b f6 99 bd 54 5b 30 3e aa f0 4a be d3 74 8f 3d
       -0.075177275 0.17222339 -0.19818369 0.07004704
000210 f6 4c e5 3b bc 7f 94 be 19 9f 63 3c 25 79 01 bf
       0.0069977 -0.29003704 0.013892912 -0.50575477
000220 db 15 dc be e8 0e 73 3d 94 c3 50 3e 7b c9 17 3b
       -0.42985424 0.059340388 0.20387107 0.0023160863
000230 dd 76 b5 3e 13 31 c9 3d 0e fb d3 bd d8 78 a2 be
       0.35442248 0.09823813 -0.10350619 -0.3173282
000240 04 7a e0 3e 0d 0e d7 3d 19 9c 6c 3e a8 49 93 bd
       0.4384309 0.10500727 0.23106422 -0.07191783
000250 52 70 00 bf 64 35 6b bc 6a 70 f7 bd 51 15 d2 be
       -0.5017139 -0.014355991 -0.12081988 -0.41031888
000260 11 a9 de be 0e 1f 42 bd b5 60 7b be c2 28 e9 3d
       -0.43488362 -0.047392897 -0.2454861 0.11384727
000270 16 cb c7 3d 3d 14 95 3c 56 55 cb 3c 73 67 9f 3d
       0.097555324 0.018198127 0.024820965 0.07783403
000280 89 b4 68 be 23 31 d6 bd 68 0b 90 3c 65 90 89 bd
       -0.22725119 -0.10458591 0.017583564 -0.06716994
000290 ed b8 24 3f 41 e2 a4 3e 98 c2 e2 3d ee 08 14 be
       0.64344674 0.32203868 0.11072272 -0.14456531
0002a0 3b 20 3c 3e bd cc c6 be cc 36 21 bd 2b d8 2d 3e
       0.1837167 -0.38828078 -0.0393589 0.16976993
0002b0 c6 f3 29 3e 01 fe 0a bf 3d f0 8a be 01 21 e3 be
       0.16596898 -0.5429383 -0.27136412 -0.44361117
0002c0 26 9c f3 3e 34 19 f2 bd 1a 50 17 3e 95 97 d1 3d
       0.4758007 -0.11821213 0.1477665 0.1023399
0002d0 1f ef b4 3e b3 28 6d 3e 5f 9c 78 3e 59 f9 53 be
       0.35338685 0.23160057 0.24278401 -0.20700587
0002e0 76 73 2e 3e 80 f9 d5 bd 7d d8 40 3d 89 e6 77 3e
       0.17036232 -0.10447979 0.04708146 0.24209036
0002f0 e6 06 00 be d8 a0 60 3c 59 28 2b bf e2 3a b0 bd
       -0.12502632 0.013710223 -0.6685844 -0.08604981
000300 45 c7 02 3f db c9 75 bd 89 09 6f 3d 60 71 2f 3d
       0.5108531 -0.060006958 0.058358703 0.042832732
000310 bf 03 a0 3d 57 d8 52 be 12 12 13 3e a2 0e eb bd
       0.078132145 -0.2059034 0.14362362 -0.114774
000320 8c a4 8f be 11 c8 48 be 0b 66 ff 3d 06 db 75 3e
       -0.28055227 -0.1960757 0.12470635 0.24009332
000330 69 50 06 3d 89 9e e0 3d fe 95 72 3e 78 53 9c be
       0.03279153 0.10967738 0.2369003 -0.30532432
000340 24 07 1a bf 73 bf 17 3d f1 d1 c6 3d 64 73 3b be
       -0.60167146 0.037047815 0.09708012 -0.18305737
000350 10 ac 03 3e 6f 8c 70 be a2 b6 de bd 66 5d 42 bf
       0.12858605 -0.23491071 -0.10874678 -0.75923765
000360 88 15 98 be 54 94 37 bd f8 57 fc 3d 57 fa 86 be
       -0.29703927 -0.04481919 0.12321466 -0.2636287
000370 46 f2 45 bd 6b 1d 1e 3e 2f 71 3b 3d 9c db cc bd
       -0.048326753 0.1544091 0.045762237 -0.10002825
000380 fb 7a e5 3e 68 70 1c 3f 11 e5 88 bd b2 70 91 be
       0.4482039 0.6110902 -0.06684316 -0.28406292
000390 e9 cb 1d be 95 b6 29 be a1 06 c9 be c8 47 1b bf
       -0.15409817 -0.16573556 -0.3926287 -0.60656404
0003a0 bc eb b8 3d b2 17 84 3e a6 44 20 3e 82 a0 33 be
       0.09029338 0.25799328 0.15651187 -0.17541698
0003b0 93 51 74 3c f2 40 8f be c6 80 89 bc 4e 2c 57 be
       0.014912027 -0.27979237 -0.016785037 -0.21012995
0003c0 25 01 58 3e a8 38 ad 3e aa 50 80 3e 1d a2 41 3c
       0.21094187 0.33832288 0.25061542 0.011818436
0003d0 bb 7c 38 be 07 51 49 3e fe 08 1c bf 11 c3 f2 3e
       -0.18016331 0.19659816 -0.6095122 0.4741445
0003e0 31 97 90 3d a8 73 e2 3d ff 9c 9e be 03 70 df 3e
       0.070600875 0.11057216 -0.30979154 0.43640146
0003f0 02 47 99 3d 0a e3 cd bd fe 17 3f be 70 a9 c4 3e
       0.07484247 -0.1005307 -0.18661496 0.3841052

Aslayer2.0.bias f4 [16]
000000 83 f7 de bd 1e e2 91 bd dd 68 fe bd cc 46 82 be
       -0.10887053 -0.071232066 -0.12422345 -0.2544464
000010 77 e2 5c bd 4b 6b 27 be e3 e7 11 be 26 ef 29 be
       -0.05392691 -0.16349523 -0.14248614 -0.16595134
000020 c5 77 04 3c 98 69 12 3e 55 e6 28 be b4 6d 77 be
       0.008085196 0.14298093 -0.16494115 -0.24162942
000030 0f 4a dc bd c6 9c 1f 3d 29 a2 26 3e 18 5b 91 3e
       -0.10756313 0.03896787 0.16272797 0.28389812

Aslayer3.0.weight f4 [16, 16]
000000 5d bc ab 3e f1 42 9a 3e 63 f1 e7 bd bd 5e ef bd
       0.33542147 0.30129197 -0.11325338 -0.11687992
000010 8c a0 55 be 39 5b 90 bd 9a 09 98 3d 92 b5 44 3e
       -0.20862025 -0.07048649 0.07423706 0.19209889
000020 18 31 fa 3d 55 77 c1 3e 02 6d 8f be fd 59 cf be
       0.12216395 0.37786356 -0.28012854 -0.40498343
000030 ff 08 a3 3e d3 a7 e3 3c b9 83 1d be 8f 4d b9 be
       0.318428 0.027789986 -0.1538228 -0.36191985
000040 3f 37 e7 3e ff 3d 7e 3d b6 dd 6c 3e 4b 40 9e bd
       0.45159337 0.062070843 0.23131451 -0.07727107
000050 19 3d df be 1b 40 c1 3e c6 ca 19 be bf 5a f1 bd
       -0.436013 0.3774422 -0.15018758 -0.117848866
000060 d4 19 f3 be 65 49 f0 3d c7 99 bc bd 35 75 d7 3e
       -0.47480643 0.11732749 -0.09209018 0.4208161
000070 0d f4 53 3d 7f 12 08 be 98 6a 80 3d 00 6c 54 3e
       0.051746417 -0.13288306 0.06270331 0.20744324
000080 10 c8 14 3f 3d 0c b6 bc 3a dc 81 3b 40 51 97 3e
       0.5811777 -0.022222633 0.0039630206 0.29554176
000090 0a f1 83 3b f2 3e 91 be 04 43 a1 3e 20 2a 97 3e
       0.004026537 -0.28368336 0.3149644 0.29524326
0000a0 f8 ba b2 be 98 a8 a6 be c4 88 76 be 19 49 c4 be
       -0.3490827 -0.32550502 -0.2407561 -0.3833702
0000b0 5a eb a6 3d 77 f9 6e bd 1a 00 8a 3d b2 a2 77 bd
       0.081503585 -0.058343377 0.067383006 -0.060457893
0000c0 23 9a 18 3d 6c b2 c1 3e 78 67 52 3e 93 56 9d 3d
       0.03725637 0.37831438 0.20547283 0.07682528
0000d0 62 9a 31 be 72 e9 b7 3d ba 9e 44 3e 7f fa 1f 3e
       -0.17344049 0.08980073 0.19201174 0.156229
0000e0 1f 1b 10 bf 29 66 d1 3d b7 d0 4b be c1 97 11 be
       -0.56291384 0.10224564 -0.19903837 -0.14218046
0000f0 13 be fd bd 0e 6f e0 be a6 54 4d 3d fc fd 89 be
       -0.123897694 -0.43834728 0.050129555 -0.26951587
000100 21 aa f0 be 67 65 82 3e d8 bd ac 3d 73 5c 9a 3e
       -0.47004798 0.2546799 0.08434647 0.30148658
000110 93 ab 8a 3e aa 0d 68 be 0e d5 83 3e 08 93 79 3e
       0.27084026 -0.22661462 0.25748485 0.24372494
000120 d1 1a b7 bb 2f 8e 53 3e 90 2e 37 be 14 c1 5d 3e
       -0.0055879136 0.20659707 -0.17888856 0.21655685
000130 4a ac 91 be 52 b5 12 3e b7 28 d3 be eb 6b d7 3d
       -0.2845176 0.1432698 -0.41242 0.105186306
000140 e7 56 03 be 3a 75 4a 3e 7d cd 2f bd f8 1e 0b be
       -0.1282612 0.19771281 -0.04292058 -0.13586032
000150 50 d4 a6 bd 56 88 a5 3e cc 83 98 3e 36 d3 83 be
       -0.08145964 0.3233058 0.29788053 -0.2574708
000160 ef f4 88 bd 23 e4 37 be d8 20 29 be 75 ae 3d bf
       -0.066873424 -0.17958121 -0.16516435 -0.74094325
000170 00 c6 df 3d 96 ed 1d 3e 2a 49 8c 3d cb 75 67 3e
       0.109264374 0.15422663 0.068498924 0.22603528
000180 cf 9f d5 be 74 3c 40 bd f4 71 6a 3d ab 58 12 bd
       -0.41723487 -0.046932653 0.05723758 -0.03572909
000190 d8 3a a7 bd 52 88 16 be f0 cf 1c bf c7 b1 18 3e
       -0.081655204 -0.1470044 -0.6125479 0.14911567
0001a0 52 22 12 3c af 37 05 be ca f8 21 3e 77 e8 60 bf
       0.008919315 -0.13009523 0.15817562 -0.87854713
0001b0 17 8f b6 be 16 f4 4d 3e 23 f1 8a be 53 8b de be
       -0.35656044 0.20112643 -0.27137098 -0.4346567
0001c0 fe e4 9b 3e d1 e1 0b be 35 f4 7f bd ae a9 51 3e
       0.30448145 -0.13660361 -0.062488753 0.20474884
0001d0 8c d4 cf be 78 8a 7a bd 9a 09 8d 3e 7a 2c b8 bd
       -0.40591848 -0.06116721 0.27546388 -0.08992858
0001e0 6b 48 d9 be 69 fb 8d 3d 30 15 3e be c1 b1 67 3e
       -0.42438063 0.06932718 -0.1856277 0.22626401
0001f0 1b 9e 47 be 9f f0 3f be b4 85 2a 3e 81 f6 44 be
       -0.19493906 -0.18744133 0.16652566 -0.19234659
000200 af 8b b1 3d f4 6e 5f be 9a 78 15 be 4c 3d 87 3e
       0.08669221 -0.21819669 -0.14596787 0.26413953
000210 2e 93 e3 3d 48 23 fe 3d 1b 8a 56 3d 93 24 57 3c
       0.11112057 0.12409073 0.0523778 0.013131279
000220 2b f6 5f 3e 88 5b b1 3d af 7b b4 bd 8a 29 e5 3c
       0.2187125 0.08660036 -0.08812653 0.027973909
000230 70 66 1b be 98 92 2a bd 3b 1d b0 be 57 90 c5 3e
       -0.15175796 -0.04164371 -0.343973 0.38586685
000240 d9 77 13 3f 9f 21 6e 3e 0e c5 4a be 97 36 15 be
       0.5760475 0.23255013 -0.19801733 -0.14571606
000250 0c b8 10 3e 67 2a 84 be 94 77 2d 3f c4 23 d0 3d
       0.14132708 -0.258136 0.67760587 0.10163072
000260 05 7e 1d bd c3 a9 8b be f7 fa 22 3e 23 66 06 be
       -0.03845026 -0.27277955 0.15916048 -0.131249
000270 fb a7 82 bc a9 73 32 3e 4a a7 f1 be 3b fd fe bd
       -0.01594924 0.17426933 -0.47197944 -0.12450644
000280 4e 87 10 be 36 a5 f4 3d 1d c9 3a bd ce 1f 16 bf
       -0.14114115 0.11945574 -0.045601953 -0.5864228
000290 a4 18 b0 3e 25 92 1c 3d f0 36 42 be 39 a5 d0 3e
       0.343938 0.03822531 -0.1896627 0.40751055
0002a0 32 30 76 be cd 32 9b bd 8f 3e ee 3e 3c 05 b5 bc
       -0.24041823 -0.07578049 0.46532103 -0.022097223
0002b0 b8 fb 1d 3e 9e 9c dd be 7b 69 dd 3e 66 d3 91 be
       0.15428054 -0.43283552 0.43244538 -0.28481597
0002c0 ca 6a 95 bd 8f a1 86 bd 1b 27 40 be 96 03 61 3e
       -0.07295759 -0.065737836 -0.18764918 0.21974024
0002d0 63 60 94 be c5 b4 7a be c8 71 0c 3d 6a d8 14 3f
       -0.28979787 -0.2448302 0.034288198 0.5814272
0002e0 e5 20 82 bd 2f 4b 12 be 11 b4 93 3e 33 61 f6 bd
       -0.063539304 -0.14286493 0.28848317 -0.12030258
0002f0 83 d0 30 be 8d f7 9f bd 53 e4 85 be 03 88 94 be
       -0.17267041 -0.078108884 -0.2615076 -0.2901002
000300 b1 f3 bc be bf ff 26 3e 09 e7 c6 3e 84 65 bd 3d
       -0.36904672 0.16308497 0.3884814 0.09247878
000310 6f b2 2f 3e f7 4b 7d bd b4 61 76 3e 54 66 19 bd
       0.17157911 -0.061840024 0.24060708 -0.037451103
000320 e4 26 54 bd 58 0f ec be b3 2c 84 3d 2c a3 30 3f
       -0.0517949 -0.46105456 0.06453838 0.6899898
000330 cd 78 3e bd 1b 5f 45 be 3a 56 a0 be cc 3c 9c be
       -0.046501923 -0.19274561 -0.31315786 -0.30515134
000340 69 a8 1e 3e 33 27 7b 3e 57 c0 8d bd e2 34 36 3e
       0.15493931 0.24526672 -0.069214515 0.1779361
000350 bc 90 90 bd ad 1b c7 bd 20 a8 4c be d8 da ce bb
       -0.07058856 -0.097220756 -0.1998601 -0.0063127093
000360 ff df bf bc d9 c3 b3 3b cd 4b 98 3e 3e 59 bc 3e
       -0.02342224 0.0054859933 0.2974533 0.36786836
000370 f8 91 40 3e 5d 5f 55 3d b5 f8 ca 3d 39 b2 85 3d
       0.18805683 0.0520929 0.09910718 0.06528134
000380 1c 8b 6d 3e 56 d4 8c be 92 f3 f8 3e 2f 00 6b 3e
       0.23197597 -0.2750575 0.4862333 0.22949289
000390 5d ba 02 3d 99 b9 19 be f8 fb 7a 3e 2a 6a 6a bf
       0.03191601 -0.15012206 0.24510181 -0.91568244
0003a0 d9 10 99 3e 2d e2 b4 bd e5 9b a2 be a1 c6 b0 be
       0.29895666 -0.08832202 -0.31759563 -0.34526542
0003b0 b2 8a 34 be c3 1b b2 bd 00 ba db be 5e 2c 3f 3f
       -0.17631033 -0.086967014 -0.42915344 0.74677074
0003c0 d0 9c c7 3e 80 7d 8e 3a 71 bc b1 be 17 16 b0 3d
       0.38986826 0.0010871142 -0.34714082 0.08597963
0003d0 56 3c b2 be a8 34 34 be 02 15 d0 3e 5a 88 a0 be
       -0.34811658 -0.17598212 0.40641028 -0.31354028
0003e0 69 05 06 3f 64 37 e7 bd 87 07 63 3e 78 e3 d3 bd
       0.52352005 -0.11289862 0.2217084 -0.103461206
0003f0 31 3b 04 bd 74 72 d8 be 0b 03 65 3e f2 06 4f 3d
       -0.03228301 -0.4227482 0.22364442 0.050543733

Aslayer3.0.bias f4 [16]
000000 08 c3 2c 3e f2 31 96 be 0a d1 11 3e 54 14 c2 bc
       0.16871274 -0.2933498 0.14239898 -0.023691334
000010 8c 5e a7 3e 44 b5 73 bd 10 89 88 be cf db 1f be
       0.3268932 -0.05949904 -0.2666707 -0.15611194
000020 4c 0e 60 be ab 23 53 bd 90 c3 6a 3e 62 c8 f6 be
       -0.21880454 -0.051547688 0.22926164 -0.48199755
000030 32 3f 2b 3d cc 15 b8 bd 5b cf a2 3d 34 cd eb be
       0.041808315 -0.089885324 0.07949706 -0.46054995

Aslayer4.0.weight f4 [16, 16]
000000 96 c6 0f 3e 99 86 da be 3f 28 05 3d 59 ea 40 3e
       0.14040598 -0.42680815 0.032509085 0.18839397
000010 58 b0 c7 3d 7d c6 a0 3d 41 91 74 3d 30 92 19 3e
       0.09750432 0.07850359 0.059708837 0.14997172
000020 1f 06 c2 bd 2d 2d ac 3e 83 ed a0 be 98 7a ca 3c
       -0.09473824 0.33628216 -0.31431207 0.02471666
000030 6b 3a 86 3e 34 10 e9 bd 34 5a f9 bd 47 19 91 3d
       0.26216444 -0.113800436 -0.12175408 0.070848994
000040 75 7a 36 3d 7f 11 05 be 0f 63 2a be ad 8d 10 be
       0.044550378 -0.12994955 -0.1663935 -0.14116545
000050 ec 6a c5 be 7a 7b 1d be 98 d8 63 3e 58 9c f4 bd
       -0.38558137 -0.15379134 0.22250593 -0.11943883
000060 4f b6 9c be 70 2f 9a 3d 14 e3 14 be 83 db ec 3e
       -0.3060784 0.07528579 -0.14539748 0.46261224
000070 27 b7 77 bd a1 ef 64 3e b2 67 22 bf 27 24 4f bf
       -0.060477402 0.22357036 -0.63439476 -0.8091454
000080 5e b9 0e 3e 15 32 e2 3d 7c d2 0c 3e 2a 68 1c 3e
       0.139379 0.11044709 0.13752168 0.1527411
000090 7d 48 4d 3c b0 76 ad 3d 5e 5e a5 be e5 ab 9f 3e
       0.01252949 0.084699035 -0.3229856 0.31185833
0000a0 03 4a 61 3e 1a 9f 0e 3d cc 29 82 3d 38 2d b3 bd
       0.2200089 0.0348197 0.06355628 -0.08748859
0000b0 b8 fd 1d bf 85 5f a6 bd 0c 24 02 3f b7 a5 b7 3e
       -0.6171527 -0.08123688 0.50836253 0.35868618
0000c0 88 b0 4d 3d 9a 63 a3 bd 4a 09 63 be 0c 4a aa bd
       0.05021718 -0.07977982 -0.22171512 -0.083149046
0000d0 25 6d a5 3d 12 6e 8d 3d 5c 41 63 3e 45 b6 d1 3d
       0.08077458 0.0690576 0.22192901 0.10239843
0000e0 11 9a 97 3d df ed bb 3d fe e4 b3 3e 05 5e 96 3e
       0.07402433 0.0917623 0.35135645 0.29368606
0000f0 71 46 5e 3f 5a e8 f1 3c 17 7f de 3e f6 70 6a be
       0.86826235 0.02952974 0.43456337 -0.22894654
000100 b7 fe eb 3b 0f 3a e6 be e7 9e 26 bc 62 a6 80 3e
       0.0072019952 -0.4496617 -0.010169721 0.2512694
000110 10 2d 43 3e 7b eb 33 3e f5 f1 8e 3c ce 39 2b bc
       0.19060159 0.17570297 0.017449358 -0.010450793
000120 63 c1 25 3e 43 cf d9 3d 9c ba 23 bd 66 62 b0 3d
       0.16187052 0.10635235 -0.039972886 0.08612518
000130 da e7 21 3f 17 7f 24 3e 6d 8d 8c 3d 35 1d 20 bc
       0.632444 0.16064106 0.06862912 -0.0097725885
000140 c5 1f 8d 3e f9 dc 5a be 29 69 91 3d 1d 6f 79 3d
       0.275633 -0.21373357 0.07100136 0.06089698
000150 51 79 0b bf 3f d0 a8 3e 49 ba 11 3d 88 67 d1 be
       -0.5448199 0.3297138 0.035578046 -0.408993
000160 25 3f 37 be f5 42 23 3f 63 56 ab bd 7f bd 12 be
       -0.17895181 0.63774043 -0.08366086 -0.143301
000170 be b7 ff 3c 14 8c 2e 3a cc 7f 73 be ea be d4 3e
       0.031215545 0.00066584465 -0.2377922 0.41551906
000180 92 d6 b7 3e 92 27 ae 3e 92 60 81 3e 7c 0c e2 3d
       0.35905892 0.34014565 0.2526899 0.110375375
000190 6c 96 6d 3d 67 9f 52 3e b3 1a aa be 5a fb 43 3d
       0.05800478 0.2056862 -0.33223495 0.04784713
0001a0 bf 3d 1f 3d ca 2e a6 be c1 a6 18 bf 92 fb 69 bd
       0.038877245 -0.32457572 -0.59629446 -0.05712468
0001b0 6c f4 bf be 56 18 63 3e a1 f9 cb 3d cc c0 72 be
       -0.37491167 0.22177252 0.09959722 -0.23706359
0001c0 e9 29 c6 be 21 0d 82 3f 60 7c e7 be c3 3c ae 3e
       -0.3870385 1.0160257 -0.45212078 0.34030733
0001d0 a5 9d 24 3e b9 c4 82 3e d4 da 40 3d f3 b5 db 3e
       0.16075762 0.25540712 0.04708369 0.42912254
0001e0 5c 3f 2c 3e d9 e7 81 3d da 9c af be 73 fe 92 be
       0.16821045 0.063430496 -0.34299356 -0.28709754
0001f0 e4 93 86 be a7 e2 1e be 80 68 3f 3c 85 3d 3e be
       -0.26284707 -0.15516149 0.01168263 -0.18578155
000200 92 48 b0 be aa 83 41 be c3 5b c8 3d 0c 24 aa 3e
       -0.34430367 -0.18897882 0.09783127 0.33230627
000210 46 b7 83 3e 41 5e dc bc 30 a0 af 3e 55 f7 84 3e
       0.25725764 -0.026900413 0.343019 0.2596995
000220 92 4a 8e be d5 d4 6a 3f b0 53 89 bd 97 f2 0a bc
       -0.27791268 0.91731006 -0.06705415 -0.0084806895
000230 0e 90 e5 bc e3 a4 91 3e 78 99 38 3d 1b ba 78 bd
       -0.028022792 0.2844611 0.045068234 -0.06072436
000240 d6 cf 32 3e 3e ef ad be 59 50 be 3e 62 2c 09 3e
       0.17462096 -0.3397159 0.37170675 0.13395837
000250 24 4b 84 3e 6f 5b 78 3d 2d 35 95 3e fe b0 af bc
       0.25838578 0.060634073 0.29142132 -0.021446701
000260 92 b2 b8 bc 7c de 11 bc ac a4 32 3f 9b d7 12 bd
       -0.022546086 -0.008903142 0.6978252 -0.03585015
000270 21 42 4c be 31 cf b4 bc 87 84 a7 be fe 90 fe 3e
       -0.19947101 -0.022071453 -0.32718298 0.49719995
000280 ad 60 c7 3d 37 ea 08 3f 0e ff ec bd ab fd c5 3e
       0.09735236 0.53482383 -0.11572085 0.38670096
000290 2c e2 60 3b 48 f9 07 bd 12 f5 15 be c9 7c 6d 3f
       0.0034314496 -0.033196718 -0.14644268 0.9276853
0002a0 84 d1 38 bd 63 14 02 bf b8 e5 1a bf 27 79 2d be
       -0.045121685 -0.5081236 -0.60506773 -0.16940747
0002b0 7e 0f 60 be 06 d1 85 bd 87 9e bc be aa 17 ee be
       -0.2188091 -0.06534009 -0.36839697 -0.4650243
0002c0 dd d8 01 3e 68 a4 e7 3a ad cc 92 be 6d d8 9c 3e
       0.12680383 0.0017672898 -0.2867178 0.3063387
0002d0 b4 02 e3 3c 27 a2 d0 3e 4e 0c 3a be 02 25 ea be
       0.02771125 0.40748712 -0.18168756 -0.4573136
0002e0 d5 35 46 be cb 66 28 3c bc 27 94 3e 3e 4c 29 bb
       -0.19356473 0.010278414 0.28936565 -0.0025832797
0002f0 9b d0 4b 3d df f0 5c bd fb 4f 22 bf 4f 0b 7a be
       0.04975949 -0.05394065 -0.6340329 -0.24418376
000300 4c 8f e6 be 4f 44 74 be ce 46 91 be 06 6a cd be
       -0.45031202 -0.23854183 -0.28374332 -0.40119952
000310 1e a5 44 be 7c 03 f5 3d e3 7a 7d be 1c 21 8f be
       -0.19203612 0.11963555 -0.24753909 -0.27954948
000320 82 c9 d1 3d 89 dd 00 bf d2 98 6a 3e 87 11 76 bd
       0.10243513 -0.50338036 0.22909859 -0.06007531
000330 10 80 5f 3e 4a 88 16 be b9 14 7e be c0 f5 05 bf
       0.21826196 -0.14700428 -0.24812593 -0.5232811
000340 6f 2d d7 ba 40 6d 67 be 23 ed 96 be d1 82 10 bd
       -0.0016416739 -0.2260027 -0.29477796 -0.035281006
000350 dc 79 8b 3d 2e 83 ff 3d 93 80 a7 3e 37 6f c8 be
       0.06810352 0.124761924 0.32715282 -0.3914735
000360 a9 e7 0f 3e 23 60 9a 3e 50 9b 5f 3f 6b bf 4d 3d
       0.14053215 0.30151471 0.87346363 0.05023138
000370 eb da 02 bf c6 9e 38 3d 9b 7e b7 3e 7b ca a7 3e
       -0.5111529 0.045073293 0.3583878 0.32771668
000380 4f e0 ce 3e c3 59 4a bc 95 8c ba 3e 7d 63 ff 3e
       0.4040551 -0.012350502 0.3643538 0.4988059
000390 0b af 2e be 5a f2 99 be c1 a6 c1 bd 94 42 b1 3d
       -0.17058961 -0.30067712 -0.09455634 0.08655277
0003a0 41 29 1c bf 6c f4 3a 3f 4b 85 87 3e d0 63 40 bf
       -0.6100045 0.7302921 0.26468882 -0.751523
0003b0 50 20 38 bf 0a 2f c8 bc da ab 95 be 95 20 df 3e
       -0.71924305 -0.024436492 -0.29232675 0.43579546
0003c0 62 17 a4 bd 15 8e f9 3d 1e 44 22 3e d7 01 df 3d
       -0.080122724 0.12185303 0.15846297 0.10889023
0003d0 f1 4c 29 3e da fe 93 3d 99 a9 31 3c dc 8a 55 be
       0.16533257 0.072263435 0.010843658 -0.20853752
0003e0 1f e3 a4 be c0 47 32 3e 0c 8e 8f bd b4 65 f1 bd
       -0.3220453 0.17410183 -0.07009515 -0.117869765
0003f0 2f 9f ae 3d bc 8c 13 bf 32 6e d5 be 96 77 de be
       0.085264556 -0.5763662 -0.41685635 -0.43450612

Aslayer4.0.bias f4 [16]
000000 9f 5c 3f 3e a2 cf ea 3d 6f fe e1 3c e8 44 84 3d
       0.18687676 0.11465384 0.027587144 0.06458455
000010 d0 ac 87 3c e5 41 9c be 88 28 e3 3a 7d f3 12 3e
       0.016561896 -0.30519024 0.0017330805 0.14350696
000020 ff 28 1a bf 5a 63 36 be 10 b7 80 bf 19 1c de 3e
       -0.60218805 -0.17811337 -1.0055866 0.43380812
000030 3e f0 c2 3d d3 b1 4c be 60 08 a4 bd 4b c0 98 3b
       0.09518479 -0.1998971 -0.0800941 0.004661595

Asfinal.weight f4 [7, 16]
000000 5a 8f 8d be 9b 30 aa be 43 ea e4 bd 38 a8 b5 3e
       -0.2764843 -0.33240208 -0.111774944 0.35479903
000010 e9 90 b3 3c e4 9d 0a 3f 11 cf 52 3d f5 b3 dc 3d
       0.021919684 0.5414717 0.051467005 0.107765116
000020 29 c5 7c 3e 55 ae c4 3d d1 8f da 3e 73 56 8b be
       0.24684586 0.09603564 0.42687848 -0.27214393
000030 9b fe b3 3e c0 2b 59 3e 17 60 78 3e 34 62 0a 3f
       0.35155186 0.21208096 0.24255405 0.54056096
000040 aa dd 48 3e 35 91 03 3f 5e 9a b1 be 98 96 f9 bc
       0.19615808 0.51393443 -0.34688085 -0.030467317
000050 ba 68 e5 bc 16 81 97 3e 6f 57 73 be a0 73 7e bf
       -0.02800404 0.29590672 -0.23763822 -0.9939518
000060 48 e4 01 3e 73 0e 16 3e 8e dd 96 bd bf 33 b8 3e
       0.12684739 0.1465395 -0.07366477 0.3597698
000070 c5 c4 ca 3e 71 26 c4 bd 74 34 4a 3e 1a 08 90 3e
       0.39603248 -0.095776446 0.19746572 0.2813118
000080 be 42 3c 3e b5 9e 0c 3e 8e 1f 3e 3e 0c 27 a9 3e
       0.18384835 0.13732417 0.18566725 0.33037603
000090 ca ce f3 bd d9 37 04 3f 77 61 dd bd ab c6 b7 be
       -0.11904676 0.51647717 -0.108096056 -0.3589376
0000a0 89 a8 74 bd 5b 82 2a 3d e9 53 83 bf d1 aa b4 be
       -0.05973104 0.041628223 -1.0259982 -0.35286573
0000b0 d0 ee 16 3d 6e 3b 51 3e e4 e3 22 3e dd 6a b1 be
       0.036848843 0.20432827 0.15907246 -0.34651843
0000c0 b0 fa 5c be 9a cc 87 3d e7 4f e1 3e 4a 89 02 bf
       -0.21580005 0.066308215 0.44006273 -0.50990736
0000d0 83 74 97 be f6 5a 90 3e b2 3a 40 3d f4 7b 22 3e
       -0.2958108 0.28194398 0.046930976 0.15867597
0000e0 77 37 4a bf d6 d9 87 3a dd aa 4b 3d 7d f3 14 3e
       -0.7899088 0.0010364603 0.049723495 0.14546008
0000f0 8c 65 3e be 62 7c 8b 3e 7a 08 51 3e 8f 3f f7 be
       -0.18593425 0.27243334 0.2041339 -0.4829068
000100 b1 62 9d be 62 6e ee 3d 3b 9a 0f be 55 4f 31 3e
       -0.30739358 0.116421476 -0.14023678 0.17315419
000110 90 ef 9e bd 30 e4 e1 3e 3c 5f d8 3d bf d1 a2 3e
       -0.07760537 0.44119406 0.105650395 0.3180065
000120 ba 9e 16 3e 4a 13 06 bf db e7 fe 3c 9e 12 cb 3e
       0.14708987 -0.5237318 0.031116417 0.3966264
000130 3b 0e f2 3e 01 2e d1 bd 72 07 b4 bf 5f fc ca 3d
       0.47276482 -0.10213853 -1.4064772 0.09911417
000140 16 d4 ba 3e 22 8d ae 3e 04 13 07 be 40 f0 a9 bd
       0.36489934 0.3409205 -0.13190848 -0.08297777
000150 25 f6 f8 3d fe 8a bb 3e 9b 17 c2 3e b2 3a ad 3e
       0.12156323 0.3662948 0.37908635 0.33833843
000160 1a 68 95 3e b5 79 0e bf 1c b4 10 3d 79 22 9d be
       0.29180986 -0.5565446 0.035328016 -0.30690363
000170 5d 90 23 bf 43 66 a8 be 13 81 37 3e d7 31 0c be
       -0.63892156 -0.3289052 0.17920332 -0.13690887
000180 bc 83 79 bc 96 f5 ec be 4b 4f 56 be ac ba c1 bc
       -0.015229162 -0.46281117 -0.20928685 -0.023648582
000190 88 10 97 3e 69 77 93 bf 33 91 45 be 07 cd d5 3e
       0.295048 -1.1520816 -0.1929367 0.41757986
0001a0 dd 8a 24 3d 67 c0 95 3d 3a af 7b 3e c7 25 71 be
       0.040171493 0.073120885 0.24578562 -0.23549567
0001b0 42 38 94 3c 84 e7 8b 3e e4 9a a9 3e 8c 10 88 3e
       0.018093232 0.2732507 0.33125985 0.26575124

Asfinal.bias f4 [7]
000000 c9 37 59 bf 71 4f c7 3d ea d7 27 be 65 aa 50 be
       -0.84850746 0.09731949 -0.16390958 -0.203775
000010 73 7f e6 3e 0d 44 63 3e 85 f1 c4 3e
       0.4501911 0.22193928 0.38465515

Vlayer1.0.weight f4 [16, 140]
000000 4f 8f 8f 3e ea 2f a0 3d e7 75 c6 be e9 5b 83 bc
       0.28039023 0.07821639 -0.38761827 -0.016035037
000010 a5 28 93 bd 76 69 c3 3f 17 e3 b5 38 c1 ea cf 3e
       -0.07185487 1.5266559 8.673051e-05 0.4060879
000020 14 b9 da 3d 24 29 bc bd 86 98 43 3d 74 c5 8a 3d
       0.10679832 -0.091875345 0.04775288 0.067759424
000030 30 de 1e 3d c5 31 fe bc 31 8d 86 3d 0d 59 6f bc
       0.038786113 -0.031029591 0.06569899 -0.014608634
000040 a8 c2 cf bc 02 13 98 bc d3 90 9f bd 3e e9 7f bc
       -0.025361374 -0.018563751 -0.07791295 -0.015619574
000050 23 f8 92 bd 4d 30 81 3d 33 cf db bb bb 4f 96 bc
       -0.071762346 0.06308041 -0.0067080497 -0.018348565
000060 da a0 f2 3c e4 93 01 bd d8 23 1f 3d 7f 07 c5 3d
       0.029617716 -0.03163518 0.038852543 0.096205704
000070 98 dd 73 3d d9 47 59 3e 17 26 d7 3d e9 60 65 3d
       0.0595375 0.21218814 0.10505312 0.056000624
000080 be fb a6 3d 95 4b 93 3d c9 e7 6d 3d 9d ec d1 3c
       0.08153485 0.071921505 0.058082376 0.025625521
000090 64 f0 8d bd d2 bc 52 3b 55 9a 0f 3d 7a e4 1d 3f
       -0.069306165 0.0032156003 0.035059292 0.6167675
0000a0 ba 8b 64 3f 03 f9 7b 3e 3e 16 ae bd 03 9b f7 bd
       0.89275706 0.24606709 -0.08500336 -0.12090113
0000b0 8d cc 3e bd 59 d8 79 3e d7 a0 4e 3e 58 72 3d 3e
       -0.046581794 0.24398936 0.20178543 0.1850065
0000c0 33 c6 05 3f 37 9e 2a bd 54 45 c2 3d c4 30 c0 3e
       0.52255553 -0.04165479 0.094858795 0.37537205
0000d0 01 4d 8e bd d6 bf a6 3d e0 dd ff 3d d3 91 86 3b
       -0.06948281 0.081420586 0.12493491 0.004106739
0000e0 ed 94 a6 3d 4a 36 ac bb d6 eb 0d 3e 61 7f 09 3c
       0.08133874 -0.005255495 0.13859496 0.008392186
0000f0 b0 4a f3 3c 07 18 8d bd 1b c9 9e 3d 2b 3a a9 3c
       0.0296987 -0.068893485 0.077532016 0.02065762
000100 d4 2e 56 3e 9f 0e cc 3d b3 14 f0 bd c8 59 1c be
       0.20916301 0.09963726 -0.11722698 -0.15268624
000110 5d a6 e9 3d ca 22 a1 3d a6 42 c9 3c b6 63 07 be
       0.114086844 0.078679636 0.024567913 -0.1322163
000120 83 bb 85 3d bd 15 91 3d 2c 3b 28 3e fa a9 7e 3c
       0.06529906 0.070842244 0.16428822 0.015543455
000130 13 05 f5 bd c3 00 69 3c 84 ee 97 3d 0d 61 02 3e
       -0.119638585 0.014221373 0.0741854 0.12732334
000140 62 9d 19 bc 3d e3 22 be 2f e1 10 3e aa d0 ee 3c
       -0.009375902 -0.15906997 0.141484 0.029152233
000150 cc 4c 80 3d 4e ca 8e bd 62 69 64 bd a1 de d1 3b
       0.06264648 -0.0697218 -0.055764563 0.0064047133
000160 81 43 69 3d 2a bf 96 3c 8b f5 e1 bb 30 8f bf bc
       0.056949142 0.018401701 -0.006895726 -0.023383707
000170 7c 98 86 bb 7e 6e 89 3d ff 1b 2a bd 29 97 58 bd
       -0.004107533 0.06710528 -0.041530605 -0.052878533
000180 b3 81 26 bd d3 af 9a bc f5 e0 1d bd 17 29 e4 3c
       -0.040651035 -0.018882668 -0.038544614 0.027851624
000190 92 95 36 bd 88 5b b9 bd 12 af 1a bc 49 9d 36 3c
       -0.044576235 -0.09050661 -0.009441154 0.011145898
0001a0 9c be 3e bd 55 84 b7 bd 23 91 ac 3c 8c f3 f0 bd
       -0.046568498 -0.08960787 0.0210653 -0.11765203
0001b0 19 d9 c0 bd 54 4c 74 bd 5b 36 72 bc 04 5a cc 3a
       -0.09416408 -0.059643105 -0.014783467 0.0015590792
0001c0 76 c7 0b bd c6 01 8c bc 9c 70 6a 3d f5 76 bb bd
       -0.034125768 -0.01709069 0.0572363 -0.09153549
0001d0 52 69 d6 3d 17 5a 0e bd 5b 5a 36 bd f1 87 ee ba
       0.10469307 -0.034753885 -0.044519763 -0.0018198473
0001e0 1e f4 18 bd d6 25 77 bd fc 3d 42 bc 09 1e 32 bd
       -0.037342183 -0.060338818 -0.011855599 -0.043485675
0001f0 7e e7 27 3e 53 ab c1 3d 94 c2 a0 3d 52 5e 17 3d
       0.16396901 0.094565056 0.07849613 0.036955185
000200 9c 1a fa 3b 7a 43 84 bd ef 27 6f bc 89 99 2a bc
       0.0076325666 -0.06458183 -0.014596923 -0.010412582
000210 31 84 14 bd 68 e8 4b 3c 55 12 4d 3d 02 e5 c5 bd
       -0.03625888 0.012445547 0.05006631 -0.096628204
000220 ba 87 3c bc e3 7c 1c bc 41 f1 72 3d 35 99 aa bd
       -0.011506969 -0.00955126 0.05931211 -0.08330003
000230 93 e0 d3 3d 2c 41 50 be 83 eb 13 3e 9d 4b 76 bf
       0.103455685 -0.20337361 0.1444531 -0.96209127
000240 3a a0 9a 3e 13 be 58 3d f1 a2 a8 bb e8 a0 e0 3e
       0.30200368 0.052915644 -0.0051463773 0.43872762
000250 3a 36 e2 bd 1c 42 f7 bb 56 62 85 bc 36 45 bf bc
       -0.11045499 -0.0075457226 -0.016282242 -0.023348432
000260 87 6a 55 bb 78 9c d5 3c bc 0c 59 3c f0 ac 21 3b
       -0.0032564716 0.026075587 0.013247665 0.002466973
000270 fc 92 80 bb d9 6b 15 bd 5d 2c 54 3c 95 01 a5 3d
       -0.003923772 -0.036479805 0.01295003 0.080569424
000280 ef 69 44 3d b8 e8 2c 3d 41 9f 07 3d c4 f3 50 bd
       0.04795259 0.042214125 0.03311086 -0.051013723
000290 7c 72 08 3d de 31 d2 3c 53 a5 30 3d a8 2f 34 3e
       0.033312306 0.025658544 0.043126415 0.17596304
0002a0 d4 7d 24 3e 71 74 fb 3d b7 9a b5 bd 0a 5b 07 be
       0.16063625 0.12278069 -0.088674 -0.13218322
0002b0 b3 fc 3a bd 5f ae bd bd 4f 82 30 3d 4d ce 57 bc
       -0.04565115 -0.09261774 0.043093022 -0.0131717445
0002c0 10 30 52 3e 4a 44 b3 3e c4 f5 4b 3e a5 a1 00 bf
       0.20526147 0.35013038 0.19917971 -0.5024665
0002d0 5b 27 24 bf f7 11 4c be 3a f1 3c 3e 89 83 56 be
       -0.6412255 -0.19928728 0.18451396 -0.20948614
0002e0 c5 b7 6b be dc a6 b0 3e 0d dc c9 3e 93 59 6d 3e
       -0.23019321 0.34502304 0.39425698 0.23178701
0002f0 56 8b 51 3e c5 49 19 be d3 63 65 bf 64 b7 70 bf
       0.20463309 -0.14969547 -0.89605445 -0.9402983
000300 95 bd 47 be 17 00 ab ba d0 60 42 ba c8 06 1a 3b
       -0.19505914 -0.0013046291 -0.0007414939 0.0023502577
000310 65 e6 76 be cf 37 22 be 79 25 85 3e 16 28 22 be
       -0.24111326 -0.15841602 0.26005152 -0.15835604
000320 3b d0 ef bd d5 a7 e6 3d 90 3e ed 3c fa 68 6a 3e
       -0.11709639 0.1126248 0.028960496 0.22891608
000330 1d 51 ef 3d ca 8e 1d be 99 57 96 be 10 d4 f0 3d
       0.11685393 -0.15386501 -0.29363707 0.11759198
000340 98 8a a3 bd de 4f 3f be 53 5f 2a be 27 93 55 be
       -0.07985419 -0.1868281 -0.16637926 -0.20856915
000350 93 fc dc bc e3 76 c3 3d a4 49 f8 3d 34 75 dd bd
       -0.026975906 0.0954416 0.12123421 -0.1081337
000360 be 06 bf bd 9d 86 de 3d 8c f1 ff bd 3e ad ee bd
       -0.09327458 0.10865519 -0.12497243 -0.11654137
000370 1d b1 f0 bd 31 84 74 bd 6d c2 92 bc 12 ed 07 3e
       -0.11752532 -0.05969638 -0.017914975 0.13274029
000380 22 b2 a7 bc b3 34 89 3c 93 ab aa bc b5 7c 00 be
       -0.020470683 0.016748762 -0.020833766 -0.12547572
000390 64 bc ee bc 3c bb 19 3d 0f 38 02 bd 68 c1 00 3d
       -0.029142566 0.037532076 -0.031791743 0.031434447
0003a0 e7 08 10 bd eb 4b 6f 3d 19 7b ad 3d 7f eb 75 3d
       -0.03516474 0.05842201 0.08470745 0.06003904
0003b0 18 15 3a bc 46 33 50 be 6e 17 da 3c c3 f1 8c 3d
       -0.011357568 -0.2033206 0.0266225 0.0688205
0003c0 11 fb ce 39 ed df a2 3d 71 2a a9 3c 98 62 b4 3c
       0.0003947844 0.07952867 0.02065012 0.02201967
0003d0 c8 8d 7f 3d 93 06 4c bd 52 65 88 bd 31 ed 05 3d
       0.062391073 -0.049810957 -0.0665995 0.032696906
0003e0 b7 28 8f 3c f3 c1 c1 3c 49 c4 34 3d ec d6 3e 3d
       0.017475469 0.023652053 0.044132505 0.046591684
0003f0 75 4e b0 3c f2 44 97 bc df b5 64 3d 5a c9 ae 3d
       0.021521786 -0.018465493 0.05583751 0.085344985

Vlayer1.0.bias f4 [16]
000000 7a f1 b7 bb ee 62 88 bd 82 38 63 bd 15 6f f0 bd
       -0.005613503 -0.06659494 -0.055473812 -0.11739937
000010 fa 77 b2 3d 46 13 3e bd d9 cd 0e 3c d9 e1 f2 3b
       0.0871429 -0.0464051 0.00871607 0.007412177
000020 d4 29 2f bd ba 4e 21 3d 3b 3c ce bd 94 f7 6d 3d
       -0.0427645 0.03938172 -0.10070082 0.058097437
000030 d9 2e c2 bb 81 17 10 3d 78 00 ca bd 08 bc 88 3d
       -0.005925995 0.035178665 -0.09863371 0.06676489

Vlayer2.0.weight f4 [16, 16]
000000 b0 f0 6e 3e 47 1f c2 be 77 0a 96 3e ab 7d c9 3e
       0.23334002 -0.37914488 0.2930486 0.3935369
000010 63 dc a6 3e a7 93 5b bd 11 fd a6 3d 1c 6a 24 3c
       0.32590017 -0.05360761 0.08153737 0.010035064
000020 08 38 c8 3d 1c 18 bf be f2 d7 bb 3e e7 87 47 3d
       0.09776312 -0.37323081 0.3668819 0.04871359
000030 3c 77 89 be 79 39 92 bd d4 ce ee bd 14 f1 a1 3e
       -0.2684878 -0.07139868 -0.11660543 0.3162924
000040 62 e5 7e bd fb 2f 91 3e 26 e4 3c 3a 9f 1b 98 3c
       -0.062230475 0.2835692 0.00072056276 0.018567858
000050 24 6c dd be 7a c2 06 3e 26 0c 80 3e ce de 15 3e
       -0.43246567 0.13160124 0.2500927 0.14635774
000060 63 b4 2f 3e ae 9a 6d 3e 89 d7 13 be b2 1d ad 3e
       0.17158656 0.23203537 -0.14437689 0.33811718
000070 b8 31 81 3e 4b e2 41 3c 32 8c b7 3d ec 05 55 be
       0.25233245 0.011833738 0.08962287 -0.2080304
000080 78 da 22 3d 21 18 57 be 0a f1 f8 3c ea 36 99 3e
       0.03975913 -0.21005298 0.030388374 0.2992471
000090 e5 b7 f6 3d 7f e0 db be d9 73 cd be 15 b3 6b be
       0.12046794 -0.42944714 -0.40127447 -0.23017533
0000a0 13 4e 35 3e 0c 60 4a 3d 99 8b e6 3e fd bc 06 be
       0.17705564 0.049408004 0.4502838 -0.13158031
0000b0 c8 72 c0 be fd 58 b6 bd f5 56 5f 3e 57 e3 8f be
       -0.3758757 -0.08903692 0.21810515 -0.28103134
0000c0 99 79 69 be e9 2e 44 be a5 62 21 be fc cf e8 3d
       -0.22800292 -0.1915852 -0.15760286 0.11367795
0000d0 ed a1 00 3d a6 af ee bd 1a 53 8b bd b5 c0 73 be
       0.031404424 -0.11654596 -0.0680296 -0.2380398
0000e0 05 91 26 be 9f c5 83 be 87 1f 6c be 38 6a c2 3e
       -0.16266258 -0.2573671 -0.23058902 0.37971663
0000f0 bd a9 6b be c1 0d 8e bd 7c 36 b9 be 4a 14 ff bd
       -0.23013969 -0.06936217 -0.3617438 -0.12455042
000100 d0 69 95 be 45 dc be bd 4e 47 94 3e e3 21 af be
       -0.2918229 -0.09319357 0.2896065 -0.3420554
000110 d8 77 84 be 77 e2 27 be 67 44 08 3d f1 7b 6e 3e
       -0.25872684 -0.16394983 0.03326836 0.23289467
000120 32 2a 15 be bb 96 4e 3e 6c 67 9f 3e 08 4f b7 be
       -0.14566877 0.20174687 0.31133592 -0.35802484
000130 06 30 69 bc c9 a9 be bd c1 55 97 3e 05 88 3b be
       -0.014232641 -0.09309728 0.29557613 -0.18313606
000140 47 c6 3a 3e fc 79 59 be 63 07 6e be a7 1b 4e 3d
       0.182397 -0.2123794 -0.23245005 0.05031934
000150 80 c4 af be a7 aa 37 be b6 b9 ba 3d 0d 26 d4 3d
       -0.34329605 -0.17936192 0.09117453 0.1035882
000160 4b 90 b2 3d f2 44 5e bd df 4d 98 3e 79 2c 5c 3e
       0.08718928 -0.05426497 0.2974691 0.2150134
000170 ca d6 00 be 35 b4 39 3e 23 7d 0c 3e 0c 3c 3d bd
       -0.12581936 0.1813515 0.13719611 -0.046199843
000180 47 59 f9 bd 11 06 64 be 87 3c e3 bd d1 51 0b be
       -0.121752314 -0.22267939 -0.11095529 -0.13605429
000190 ff 85 ec 3e ab 3b 60 be ec b7 d2 39 3f 28 c7 3b
       0.4619598 -0.21897762 0.00040191354 0.0060777958
0001a0 df 7c 2a 3e d8 d2 f5 3c 22 30 1b bd f8 98 70 be
       0.16649197 0.030007765 -0.0378877 -0.23495853
0001b0 42 59 00 bf f6 0c ac be 0d 3e c0 be 0a fe 46 3e
       -0.50136197 -0.33603638 -0.3754734 0.19432846
0001c0 67 b4 b2 bd f8 1a fe bd dc d4 33 3e 1e 86 f6 be
       -0.08725815 -0.12407488 0.17561668 -0.48149198
0001d0 38 e1 a9 be 79 8e 0e be 23 5c 1c 3c 45 d7 02 3f
       -0.3317964 -0.13921537 0.0095434515 0.51109725
0001e0 e5 97 aa 3d 55 a3 b7 3e 38 5f 2e be 3c 39 f7 be
       0.08329753 0.358668 -0.1702851 -0.48285854
0001f0 0c ff 8b bc 60 28 66 3e 4f e8 c3 be 61 f0 b9 3c
       -0.01708939 0.2247634 -0.38263175 0.02269763
000200 0f 50 fc 3d 2b d4 33 be 45 6e c3 ba 55 ec 56 3d
       0.123199575 -0.17561404 -0.0014910182 0.052471478
000210 e2 b1 60 3a 7f d5 9c 3d f6 a1 8a 3e 33 00 44 3f
       0.00085714285 0.07657909 0.2707669 0.76562804
000220 d8 dc 0c 3e e0 30 fd 3e 6d 45 9c be 8a be bc 3e
       0.1375612 0.4945135 -0.30521718 0.3686412
000230 78 32 56 3e 7b ff 89 3e 5e d9 cb bb b3 04 b5 3b
       0.2091769 0.2695273 -0.0062209805 0.005524242
000240 3a 89 1a be f6 92 a6 3d 1e 82 e9 be b6 8a 63 3d
       -0.1509141 0.08133499 -0.45607084 0.055552207
000250 3d 47 ad 3e fa a8 8f 3d 43 50 30 bd 6e 83 ab bb
       0.33843413 0.070146516 -0.043045294 -0.0052341735
000260 cb a5 83 3c c2 3b 28 3e 19 08 0b bd 24 d8 a6 3e
       0.016070267 0.16429046 -0.03394327 0.32586777
000270 6f b0 76 be 3f db bb be c0 9a 15 be 77 c3 3d be
       -0.24090742 -0.3669071 -0.14609814 -0.18531595
000280 33 00 89 be b3 6f c5 be 84 29 1d be ba d3 5f be
       -0.26757964 -0.38561782 -0.15347868 -0.21858111
000290 5c b6 6a 3e b6 98 4c 3e 77 a2 26 3f 41 f1 10 3f
       0.22921127 0.1998013 0.6509165 0.56618124
0002a0 1f ad a5 3d 19 ac 22 3e 16 73 10 3d d7 ad 65 be
       0.08089661 0.15885963 0.035266005 -0.22429596
0002b0 ab 90 6f bf 0d bb d7 be 86 08 68 3e af a0 15 be
       -0.9358012 -0.42134896 0.22659501 -0.14612077
0002c0 15 47 09 3d fb cf 9d 3e f7 37 33 3e 9c a2 f6 3e
       0.033515055 0.3082274 0.17501818 0.48170936
0002d0 35 3d a6 bd 47 5b bd bd b7 2d 72 bd 24 f0 2c 3e
       -0.08117143 -0.092459254 -0.05912563 0.16888481
0002e0 df 8a 72 3d 68 a1 c1 be 90 74 1e 3e c4 33 d6 bd
       0.05921447 -0.37818456 0.15474153 -0.10459092
0002f0 f5 11 0a 3f 80 52 fe bd d2 cc 0f be 7c 00 e6 3d
       0.5393365 -0.124180794 -0.14042976 0.11230561
000300 73 f5 87 be 22 0e 55 be 40 a7 2f 3e af c8 14 bd
       -0.2655445 -0.20806172 0.17153645 -0.0363242
000310 4c ab 2c be 54 1d b3 3e 1d f6 41 bd 77 98 26 3e
       -0.1686222 0.34983313 -0.047353853 0.16269098
000320 18 80 d5 bd 04 e7 6b 3e a7 29 9f 3e 3a 42 a3 3d
       -0.104248226 0.23037344 0.31086466 0.07971616
000330 dc 88 ac 3d ce b1 ad bd c5 96 82 3e 8b 6a 32 be
       0.08424541 -0.08481179 0.25505653 -0.17423455
000340 2b e8 1d be ff db bc bd 2a 29 47 3e 20 e9 1b bd
       -0.15420596 -0.092216484 0.19449297 -0.038064122
000350 98 d6 fd 3d 14 22 6e be 6e 65 44 3e 19 26 96 3d
       0.12394446 -0.23255187 0.19179317 0.07331485
000360 03 a2 1c 3e 32 1a c9 3c 0a 0c e0 bb b6 08 b3 be
       0.15296178 0.024548624 -0.0068373727 -0.34967583
000370 e2 fd 16 be 54 2e c3 3e da be 92 be 45 82 ae 3d
       -0.14745286 0.38121283 -0.28661233 0.08520941
000380 b2 74 2d be 77 36 f6 3d d5 51 b7 3e 1d 88 85 be
       -0.16939047 0.12022107 0.3580462 -0.2608041
000390 77 33 4d 3e d6 f5 7a bd 3b 5f 88 3e 43 91 40 3c
       0.20039164 -0.061269604 0.26635155 0.011753383
0003a0 79 94 b3 3e 17 fe 5b be 91 a5 b5 3d 50 1d 60 be
       0.35074213 -0.21483646 0.0886947 -0.21886182
0003b0 60 37 bf 3b bb 05 00 bf 76 aa 19 3d 14 f5 96 3c
       0.0058354586 -0.50008744 0.03751608 0.01842741
0003c0 88 5e 27 be 20 4c f9 3d 63 6a 1c ba f8 eb 55 3d
       -0.16344655 0.12172723 -0.00059667806 0.05222699
0003d0 d7 33 3b 3d 52 02 56 be a5 ca f2 3b 7a c0 fc 3d
       0.045703735 -0.20899323 0.007409411 0.123413995
0003e0 9e 70 96 3e d8 a4 32 b9 6c a2 36 be 9e 1d 92 3d
       0.29382795 -0.00017036812 -0.17835397 0.07134555
0003f0 dd db 57 3e c0 b8 af bd 4e 03 d7 3e 6c cf 18 3e
       0.21079965 -0.0858016 0.4199471 0.14922875

Vlayer2.0.bias f4 [16]
000000 9e 2c b8 3b 62 a8 b8 3d 07 ec c6 be c5 7a 0d 3d
       0.005620553 0.090164915 -0.3885195 0.03454091
000010 39 86 d6 3d 86 33 57 3c d4 cf 12 3c 2a dd 90 3e
       0.1047482 0.013134843 0.008960683 0.28293735
000020 cd 26 7a 3e c8 61 27 be 52 80 c5 3d d6 90 62 be
       0.24428864 -0.16345894 0.09643616 -0.22125563
000030 e7 22 96 bb 98 f6 16 bd 5f 67 35 bd 7c 77 6b 3d
       -0.0045817974 -0.036856264 -0.044288035 0.057486996
